BC_Initialization/cyber_security/policy.pth (torch, 329426 bytes, 15 tensors)

mlp_extractor.policy_net.0.weight f4 [100, 165]
0	0x3ddac6d5	0.106824555
1	0xbd767be5	-0.06017675
2	0x3d3b6855	0.045753796
3	0xbe4381e5	-0.1909252
4	0x3c8e2813	0.017353093
5	0xbb9fb957	-0.004874389
6	0xbda65cd6	-0.08123176
7	0x3d5da8fa	0.054116227
8	0x3df191e5	0.11795405
9	0x3d69a22e	0.057039432
10	0xbb908d6f	-0.0044113914
11	0xbdd0180a	-0.10160835
12	0xbc502317	-0.012703679
13	0x3d974e50	0.07387984
14	0xbc17c40c	-0.00926305
15	0xbd1698e6	-0.03676691
16	0xbdd5d04a	-0.104401186
17	0x3dfe0fa2	0.124053255
18	0xbe59b2fb	-0.21259682
19	0x3dd42e21	0.10360361
20	0x3e9390c6	0.2882139
21	0xbd48e840	-0.049049616
22	0xbceba68a	-0.028765935
23	0xbd490472	-0.049076505
24	0xbce7ba59	-0.0282871
25	0xbe33a992	-0.17545155
26	0xbe1b6c08	-0.1517793
27	0x3d979b0d	0.074026205
28	0xbc205dc3	-0.00978798
29	0x3c0da9a3	0.008646402
30	0x3c83f689	0.016108768
31	0xbcc890b8	-0.02448307
32	0xbdd6e7ff	-0.104934685
33	0xbd6c9693	-0.057760786
34	0x3e0325e1	0.12807418
35	0xbdfafa62	-0.12254788
36	0xbe0010fe	-0.12506482
37	0x3e160b46	0.14652738
38	0x3cec1496	0.02881841
39	0xbb9a76ac	-0.004713854
40	0xbde1e682	-0.11030294
41	0x3cf5b645	0.02999414
42	0xbe5ca3c7	-0.21546851
43	0xbd8677ac	-0.06565794
44	0xbdb5d56f	-0.088786
45	0x3e02cfdb	0.12774603
46	0x3e3b9a50	0.18320584
47	0x3da5aeea	0.08090003
48	0xbd71d713	-0.059043
49	0x3c061562	0.008183809
50	0xbd5d8a11	-0.05408675
51	0xbdf550f7	-0.119783334
52	0xbdfe75cd	-0.124248125
53	0xbd3e23fe	-0.046421044
54	0x3d9954ce	0.07486878
55	0x3e2e4469	0.17018284
56	0x3c3d4df2	0.011554228
57	0x3b988ad0	0.0046552196
58	0xbbc55a45	-0.006022724
59	0xbdc2e9da	-0.0951726
60	0xbd9ef351	-0.07761253
61	0x3dbc084f	0.09181272
62	0x3d932af4	0.07185927
63	0xbdac9a64	-0.08427885
64	0xbd358613	-0.044317316
65	0xbe3884cb	-0.18019406
66	0xbe1b7978	-0.15183055
67	0x3e1653b2	0.14680365
68	0xbe145ba2	-0.1448808
69	0x3d5a220b	0.053255122
70	0x3de3331e	0.11093734
71	0xbdd9c552	-0.10633339
72	0xbd08d08a	-0.033402003
73	0xbe67cf98	-0.22637784
74	0x3e61582a	0.22006288
75	0xbe547e0e	-0.20751211
76	0x3dad439a	0.084601596
77	0x3e03a667	0.12856446
78	0x3e0a7f2e	0.13525078
79	0x3d92dd49	0.07171113
80	0xbe23fa0f	-0.16013359
81	0x3e7356ff	0.23763655
82	0x3e01fb0b	0.12693422
83	0xbc3faf10	-0.011699453
84	0xbe47b7d6	-0.19503722
85	0x3d7168bc	0.058937773
86	0xbc2a1eff	-0.010383367
87	0xbd942659	-0.07233877
88	0xbdff762e	-0.12473713
89	0xbd4afdf6	-0.049558602
90	0x3d7d1b0a	0.061793365
91	0xbcdfb113	-0.027306115
92	0xbca30c1b	-0.019903233
93	0xbe0c4936	-0.13699803
94	0xbd9e26ef	-0.0772227
95	0xbda7064a	-0.081554964
96	0xbc575ba2	-0.013144406
97	0xbe1b7652	-0.15181854
98	0x3e90df6f	0.28295466
99	0xbd412b94	-0.0471607
100	0x3e047450	0.12934995
101	0xbc508daf	-0.0127290925
102	0x3d41b234	0.04728909
103	0x3db66082	0.08905126
104	0xbe3abead	-0.182368
105	0x3e1c7716	0.15279803
106	0x3d664529	0.0562183
107	0xbd023a23	-0.031793725
108	0x3d1000f5	0.035157163
109	0x3d8e605c	0.06951973
110	0x3e5e3351	0.21699263
111	0x3df71463	0.12064435
112	0xbd8d0fcd	-0.068877794
113	0xbe03108e	-0.12799284
114	0xbcdddc56	-0.027082603
115	0x3c092e47	0.00837285
116	0xbe07f1ac	-0.13275784
117	0x3d93fee6	0.072263524
118	0x3e139d7b	0.14415543
119	0x3e264969	0.16238941
120	0x3d557c93	0.052120756
121	0x3d8a5320	0.06754136
122	0x3dd30374	0.10303393
123	0x3d33cd69	0.043897066
124	0x3d23b46d	0.03996699
125	0x3d9419c2	0.072314754
126	0xbd98c993	-0.07460322
127	0x3e8a72f6	0.27040833
128	0xbe82c648	-0.25541902
129	0xbc993236	-0.0187007
130	0xbddb0d39	-0.106958814
131	0x3ca09f27	0.01960714
132	0xbc1e2134	-0.009651471
133	0x3e7d3ef1	0.24731041
134	0xbcd36551	-0.025805147
135	0xbdd075af	-0.10178696
136	0x3d2c6799	0.042090986
137	0xbe04325f	-0.1290984
138	0x3da636a1	0.081158884
139	0xbc7a90ce	-0.015293313
140	0x3d3a555d	0.045491565
141	0x3e2b3a3d	0.16721435
142	0x3d7c3d43	0.06158186
143	0x3dc0202d	0.09381137
144	0x3d702499	0.058628652
145	0x3dce4bdc	0.10073063
146	0x3e063209	0.13105024
147	0xbbfbf96c	-0.0076896455
148	0xbd9ed663	-0.07755735
149	0xbd472fb3	-0.048629474
150	0x3c259a77	0.010107628
151	0xbe6bb97c	-0.23019975
152	0xbd680270	-0.05664295
153	0xbcd810da	-0.026375223
154	0x3d6c83eb	0.057742994
155	0x3e00def8	0.12585056
156	0x3d894869	0.06703264
157	0x3e05ffd8	0.13085878
158	0x3c9b886c	0.01898595
159	0x3d967b51	0.073477395
160	0xbd5c7a86	-0.053827785
161	0x3da46bd3	0.08028378
162	0x3b457afe	0.0030133124
163	0xbd6e14cb	-0.0581253
164	0x3cdf231a	0.027238417
165	0x3e0b1542	0.13582328
166	0x3d1385de	0.036016338
167	0x3de131e5	0.10995845
168	0x3dbb4128	0.09143287
169	0x3d0c62ac	0.03427379
170	0x3e3b6c44	0.18303019
171	0x3d8b910a	0.068147734
172	0xbe831d84	-0.25608456
173	0x3d583b31	0.052790824
174	0x3e3d1a05	0.18466957
175	0x3df2778b	0.11839207
176	0xbd0571e1	-0.032579307
177	0xbd61a9f6	-0.055093728
178	0x3d7d9ed0	0.061919034
179	0x3db2f7c5	0.087386645
180	0x3d407c0b	0.046993297
181	0x3da373f3	0.079811
182	0xbd8c8500	-0.06861305
183	0x3ccb2c70	0.024801463
184	0xbd5113a3	-0.051044118
185	0x3c98f15b	0.018669775
186	0xbdcfceb0	-0.101468444
187	0xbc267bfe	-0.010161398
188	0xbdb95023	-0.09048488
189	0xbd460480	-0.048344135
190	0xbd92768a	-0.07151516
191	0x3d9bcc87	0.0760737
192	0xbd81fc71	-0.063469775
193	0xbd5eabfb	-0.054363232
194	0x3d07760d	0.033071566
195	0x3a8d19d1	0.001076514
196	0xbe08ac70	-0.1334703
197	0xbd0d61ea	-0.034517206
198	0xbb5c4321	-0.0033609348
199	0x3c3ee564	0.011651371
200	0x3e61869f	0.2202401
201	0x3e3cf857	0.18454109
202	0xbd79edc7	-0.061017778
203	0xbdf8d96d	-0.12150846
204	0x3e134bc0	0.14384365
205	0xbe10d12f	-0.14142297
206	0xbe096bcf	-0.13420032
207	0xb9cc1854	-0.00038928038
208	0x3ea0d188	0.3140986
209	0xbb6d75ee	-0.0036233622
210	0x3c76f5c9	0.015073248
211	0x3dc24246	0.09485297
212	0x3cf0941b	0.029367497
213	0xbe7f97e7	-0.2496029
214	0x3d2313d9	0.03981385
215	0xbd1ed49a	-0.03877697
216	0x3e77e5e3	0.24208789
217	0x3dab3bca	0.08361013
218	0xbdab3c18	-0.08361071
219	0xbd0feb2f	-0.035136398
220	0x3e48f6e1	0.19625427
221	0x3e853f2e	0.26024765
222	0xbddc7f65	-0.10766486
223	0x3cdeb724	0.027186938
224	0xbe16cded	-0.14726992
225	0x3d45defb	0.048308354
226	0xbe6ddf70	-0.23229766
227	0xbe1a5cd3	-0.15074472
228	0xbe1d368b	-0.15352838
229	0x3dbaa6ef	0.09113871
230	0xbe25490c	-0.16141146
231	0x3dc20210	0.0947305
232	0x3d9a4342	0.0753236
233	0xbca7d0e4	-0.020485349
234	0xbcf7f733	-0.030269241
235	0x3d90fdbd	0.07079647
236	0x3a935b24	0.0011242372
237	0x3d3feab2	0.046854682
238	0x3e3c3b36	0.18381962
239	0x3cacb7b6	0.021083694
240	0xbe21648f	-0.15761016
241	0xbd1569e8	-0.036477953
242	0x3dbc13bd	0.09183452
243	0xbd2fc74e	-0.04291468
244	0xbe1e578c	-0.15463084
245	0xbd833c1b	-0.064079486
246	0x3e0ffd78	0.14061534
247	0xbc873634	-0.016505338
248	0x3d02e199	0.031953428
249	0x3cdd9ee8	0.027053311
250	0xbcd0576f	-0.025432317
251	0xbe085645	-0.13314159
252	0xbda7f1fc	-0.08200452
253	0xbd51058b	-0.051030677
254	0x3c845778	0.01615499
255	0x3db3fb5f	0.087881796

mlp_extractor.policy_net.0.bias f4 [100]
0	0x00000000	0.0
1	0x00000000	0.0
2	0x00000000	0.0
3	0x00000000	0.0
4	0x00000000	0.0
5	0x00000000	0.0
6	0x00000000	0.0
7	0x00000000	0.0
8	0x00000000	0.0
9	0x00000000	0.0
10	0x00000000	0.0
11	0x00000000	0.0
12	0x00000000	0.0
13	0x00000000	0.0
14	0x00000000	0.0
15	0x00000000	0.0
16	0x00000000	0.0
17	0x00000000	0.0
18	0x00000000	0.0
19	0x00000000	0.0
20	0x00000000	0.0
21	0x00000000	0.0
22	0x00000000	0.0
23	0x00000000	0.0
24	0x00000000	0.0
25	0x00000000	0.0
26	0x00000000	0.0
27	0x00000000	0.0
28	0x00000000	0.0
29	0x00000000	0.0
30	0x00000000	0.0
31	0x00000000	0.0
32	0x00000000	0.0
33	0x00000000	0.0
34	0x00000000	0.0
35	0x00000000	0.0
36	0x00000000	0.0
37	0x00000000	0.0
38	0x00000000	0.0
39	0x00000000	0.0
40	0x00000000	0.0
41	0x00000000	0.0
42	0x00000000	0.0
43	0x00000000	0.0
44	0x00000000	0.0
45	0x00000000	0.0
46	0x00000000	0.0
47	0x00000000	0.0
48	0x00000000	0.0
49	0x00000000	0.0
50	0x00000000	0.0
51	0x00000000	0.0
52	0x00000000	0.0
53	0x00000000	0.0
54	0x00000000	0.0
55	0x00000000	0.0
56	0x00000000	0.0
57	0x00000000	0.0
58	0x00000000	0.0
59	0x00000000	0.0
60	0x00000000	0.0
61	0x00000000	0.0
62	0x00000000	0.0
63	0x00000000	0.0
64	0x00000000	0.0
65	0x00000000	0.0
66	0x00000000	0.0
67	0x00000000	0.0
68	0x00000000	0.0
69	0x00000000	0.0
70	0x00000000	0.0
71	0x00000000	0.0
72	0x00000000	0.0
73	0x00000000	0.0
74	0x00000000	0.0
75	0x00000000	0.0
76	0x00000000	0.0
77	0x00000000	0.0
78	0x00000000	0.0
79	0x00000000	0.0
80	0x00000000	0.0
81	0x00000000	0.0
82	0x00000000	0.0
83	0x00000000	0.0
84	0x00000000	0.0
85	0x00000000	0.0
86	0x00000000	0.0
87	0x00000000	0.0
88	0x00000000	0.0
89	0x00000000	0.0
90	0x00000000	0.0
91	0x00000000	0.0
92	0x00000000	0.0
93	0x00000000	0.0
94	0x00000000	0.0
95	0x00000000	0.0
96	0x00000000	0.0
97	0x00000000	0.0
98	0x00000000	0.0
99	0x00000000	0.0

mlp_extractor.policy_net.2.weight f4 [100, 100]
0	0x3ea7527f	0.32680127
1	0x3c65cc69	0.014025786
2	0x3c61f8d9	0.01379224
3	0x3d073f19	0.03301916
4	0x3df3a304	0.11896327
5	0xbe1bf921	-0.15231754
6	0x3d99a703	0.07502558
7	0x3da59305	0.080846824
8	0x3d83452d	0.064096786
9	0xbb415700	-0.002950132
10	0x3d4d889e	0.050179116
11	0x3d82a36c	0.063788265
12	0xbe3ddd78	-0.18541515
13	0x3bf97f5d	0.00761406
14	0x3cfbc1f7	0.030732138
15	0xbc3ebde6	-0.011641955
16	0x3c8d6df2	0.01726434
17	0xbc4d9f36	-0.012550166
18	0xbdf92039	-0.12164349
19	0xbdf776b1	-0.120831855
20	0x3ed6f21f	0.419816
21	0xbd138da5	-0.036023755
22	0x3df95d45	0.12175993
23	0x3cb27d1b	0.02178817
24	0xbd098abc	-0.033579573
25	0xbe74c00d	-0.23901387
26	0x3d7b7d4c	0.06139879
27	0xbd3d3588	-0.04619363
28	0xbc177cda	-0.0092460755
29	0xbd23e651	-0.04001457
30	0xbc55484f	-0.013017728
31	0xbe1252bd	-0.14289375
32	0xbe5c0456	-0.21486029
33	0x3d89c486	0.06726937
34	0xbbae08b6	-0.005311097
35	0x3e5d267f	0.21596716
36	0x3d885b82	0.06658079
37	0x3d3d347e	0.04619264
38	0xbddf03bd	-0.10889385
39	0xbe8d0ee0	-0.2755041
40	0xbbda3f99	-0.0066604135
41	0xbdd7a955	-0.105303444
42	0x3d547e6b	0.051878374
43	0x3d4947c4	0.049140707
44	0xbe328033	-0.17431717
45	0x3e0564a1	0.13026668
46	0xbda555da	-0.080730155
47	0x3daaa452	0.08332123
48	0x3d40a7e0	0.047035098
49	0x3eb074d0	0.3446412
50	0x3dd92774	0.10603228
51	0x3a2d7f7f	0.00066184247
52	0xbdfa99bd	-0.122363545
53	0xbe0853a3	-0.13313155
54	0xbd904793	-0.07044902
55	0x3dd48b49	0.10378129
56	0x3e516838	0.20449913
57	0xbe8ee87a	-0.2791174
58	0xbd1300f1	-0.03588957
59	0xbd4dc219	-0.050233934
60	0xbb808b9a	-0.003922892
61	0xbd746c50	-0.059673607
62	0xbd891565	-0.06693534
63	0x3ddec11d	0.10876677
64	0xbdf9a5a7	-0.12189799
65	0xbdb42d86	-0.087977454
66	0x3de281af	0.110598914
67	0xbd9ae0fc	-0.075624436
68	0x3e2b2fad	0.16717406
69	0x3d97f308	0.074194014
70	0xbe128202	-0.14307407
71	0xbcc24728	-0.02371557
72	0x3d4e9f9e	0.05044519
73	0xbdcd5435	-0.10025827
74	0xbed71c4b	-0.42013773
75	0x3d7b0e1f	0.061292764
76	0x3e74ee06	0.23918924
77	0xbdac8cdf	-0.084253065
78	0x3e4daef1	0.20086266
79	0xbe30e8d5	-0.17276318
80	0xbe2d0af1	-0.16898705
81	0x3aca84b7	0.0015450929
82	0x3d986e51	0.07442916
83	0xbe587339	-0.21137704
84	0xbe95a14d	-0.29224625
85	0x3e1d065a	0.15334454
86	0x3dae7901	0.085191734
87	0xbe52ae23	-0.2057424
88	0xbe2b5900	-0.1673317
89	0x3d475c70	0.04867214
90	0x3d101fad	0.03518646
91	0xbba0d7de	-0.004908546
92	0x3df8bc38	0.12145275
93	0x3c513ecf	0.012771322
94	0xbe113e44	-0.14183909
95	0xbe2691c4	-0.16266543
96	0xbd35bffc	-0.044372544
97	0xbe8ed8c0	-0.27899742
98	0xbdb51610	-0.08842099
99	0x3e6d0662	0.23146966
100	0xbe1a7374	-0.15083104
101	0xbe263a70	-0.1623323
102	0xbc9d470a	-0.019198913
103	0xbea512b5	-0.32240835
104	0xbd1a7919	-0.037713144
105	0x3e9f2a75	0.3108708
106	0x3df271f0	0.11838138
107	0x38d6e7bc	0.00010247479
108	0x3d9a7cab	0.0754331
109	0x3d8d8c96	0.0691158
110	0x3e0c88ae	0.13724014
111	0xbe9f7d60	-0.3115034
112	0x3ea0f50a	0.3143695
113	0x3d72b936	0.059258662
114	0xbdae49ff	-0.085102074
115	0x3e386bf9	0.18009938
116	0xbd0021c5	-0.031282205
117	0xbd8bb9ae	-0.06822525
118	0xbd89aaff	-0.06722068
119	0xbd1ed8ee	-0.0387811
120	0x3dfe52ec	0.1241816
121	0xbe940f56	-0.2891795
122	0x3dc3d5c1	0.09562255
123	0xbcc05199	-0.023476409
124	0xbe7c1853	-0.24618654
125	0xbe70a9f8	-0.23502338
126	0xbdd3e9d0	-0.103473306
127	0xbd85d246	-0.06534247
128	0xbe10c27a	-0.14136687
129	0x3e303b02	0.1721001
130	0xbc9c6e7d	-0.019095654
131	0xbd001e10	-0.03127867
132	0x3ce4f7cc	0.02795019
133	0x3d176a68	0.03696671
134	0xbd161e84	-0.036650196
135	0x3e4c0e85	0.19927414
136	0x3d94bb8b	0.072623335
137	0x3ced7e87	0.028990997
138	0x3e5b6be9	0.21427883
139	0xbe5250cb	-0.20538633
140	0x3e4732bc	0.19452947
141	0x3e20d208	0.1570512
142	0xbe788ed3	-0.24273233
143	0xbe295443	-0.1653605
144	0x3d6fabc9	0.058513436
145	0xbe3a0fca	-0.18170086
146	0xbc278923	-0.010225567
147	0xbd56131b	-0.052264314
148	0x3daa6aae	0.08321129
149	0x3d8c39ea	0.06846984
150	0x3ceffcab	0.029295286
151	0xbe113f28	-0.14184248
152	0xbe2041d7	-0.15650116
153	0xbdb93ebf	-0.09045171
154	0x3d88141b	0.0664446
155	0x3e71e566	0.23622665
156	0xbce85ec3	-0.028365498
157	0xbe194677	-0.14968286
158	0x3df6dd3a	0.12053914
159	0x3e5340ff	0.20630263
160	0x3d88ee09	0.066860266
161	0x3e709e00	0.23497772
162	0x3e49145f	0.19636677
163	0x3da58925	0.08082799
164	0xbd823ca3	-0.06359222
165	0xbdb67dc0	-0.08910704
166	0x3cdab0e0	0.026695669
167	0x3e0b0108	0.13574612
168	0xbd5635f1	-0.052297536
169	0x3e367045	0.17816265
170	0x3e132af2	0.14371851
171	0xbc1e2e61	-0.009654612
172	0x3d9b0a09	0.075702734
173	0xbd4dc142	-0.050233133
174	0xbd3c3b18	-0.045954794
175	0x3ea161ae	0.31519836
176	0xbdb31aef	-0.087453716
177	0x3ea99f9d	0.33129588
178	0x3d0bc52c	0.034123585
179	0xbd9b9f77	-0.07598775
180	0x3df0e621	0.117626436
181	0x3d28e81d	0.041236985
182	0xbdb22c58	-0.08699864
183	0xbdbc1ecf	-0.09185564
184	0xbe179c60	-0.14805746
185	0xbc5c3c94	-0.013442177
186	0x3d5cb083	0.053879272
187	0x3e00d3f2	0.1258085
188	0x3e12f066	0.14349517
189	0xbe17e9ca	-0.14835277
190	0x3e0350cc	0.1282379
191	0xbbf16805	-0.0073671364
192	0xbe23853a	-0.1596879
193	0x3c4f8b43	0.01266748
194	0x3e113f30	0.1418426
195	0x3cdedb57	0.027204199
196	0xbdcdf362	-0.10056187
197	0xbd3f9d31	-0.04678077
198	0xbc3731b4	-0.011181284
199	0xbe061046	-0.13092145
200	0x3e1f7953	0.15573625
201	0x3e0d959b	0.13826601
202	0xbe682333	-0.22669677
203	0xbd148ed8	-0.03626904
204	0xbce2c543	-0.027681952
205	0xbc8aceea	-0.016944367
206	0xbe6ab67f	-0.22921179
207	0x3e2bb147	0.16766845
208	0x3e2c06ef	0.1679952
209	0xbd127e3b	-0.035764914
210	0xbcf66f34	-0.030082323
211	0xbd91f5c4	-0.07126954
212	0x3df7d2d9	0.12100763
213	0xbdaae38e	-0.08344184
214	0x3da79520	0.0818274
215	0xbd605a87	-0.054773834
216	0x3dff06c9	0.12452466
217	0xbe0ca8e7	-0.13736306
218	0xbdf3997b	-0.118945085
219	0x3e35335c	0.17695373
220	0x3df28184	0.118411094
221	0x3e50779e	0.2035813
222	0x3e290454	0.16505557
223	0x3e2078d1	0.15671088
224	0xbb09beb8	-0.0021018218
225	0xbd972b1f	-0.073812716
226	0xbd98d450	-0.074623704
227	0x3e3813e5	0.17976339
228	0x3da6ccef	0.08144557
229	0xbca95fd3	-0.020675575
230	0xbeb0feb3	-0.3456932
231	0xbd7e13d4	-0.06203063
232	0xbe0df8c4	-0.13864428
233	0x3d9756e1	0.07389618
234	0xbc0f8048	-0.008758612
235	0x3dad43bc	0.08460185
236	0x3d8f673b	0.070021115
237	0xbde1d45d	-0.11026833
238	0x3e16690f	0.14688514
239	0x3e272c42	0.16325477
240	0x3ea8e355	0.3298594
241	0xbd17cfaf	-0.037063297
242	0x3cb5fe5f	0.02221602
243	0x3e5040fd	0.20337291
244	0xbe1e1039	-0.15435876
245	0xbda7c157	-0.081911735
246	0x3be9b3e5	0.007132041
247	0xbb30e105	-0.002698959
248	0xbe737a16	-0.23777041
249	0xbd790dce	-0.06080418
250	0xbc05b426	-0.0081606265
251	0x3be5649b	0.0070005185
252	0xbd4adda5	-0.049527783
253	0x3ea69464	0.32535088
254	0x3dfe6297	0.12421148
255	0xbcb3753a	-0.021906484

mlp_extractor.policy_net.2.bias f4 [100]
0	0x00000000	0.0
1	0x00000000	0.0
2	0x00000000	0.0
3	0x00000000	0.0
4	0x00000000	0.0
5	0x00000000	0.0
6	0x00000000	0.0
7	0x00000000	0.0
8	0x00000000	0.0
9	0x00000000	0.0
10	0x00000000	0.0
11	0x00000000	0.0
12	0x00000000	0.0
13	0x00000000	0.0
14	0x00000000	0.0
15	0x00000000	0.0
16	0x00000000	0.0
17	0x00000000	0.0
18	0x00000000	0.0
19	0x00000000	0.0
20	0x00000000	0.0
21	0x00000000	0.0
22	0x00000000	0.0
23	0x00000000	0.0
24	0x00000000	0.0
25	0x00000000	0.0
26	0x00000000	0.0
27	0x00000000	0.0
28	0x00000000	0.0
29	0x00000000	0.0
30	0x00000000	0.0
31	0x00000000	0.0
32	0x00000000	0.0
33	0x00000000	0.0
34	0x00000000	0.0
35	0x00000000	0.0
36	0x00000000	0.0
37	0x00000000	0.0
38	0x00000000	0.0
39	0x00000000	0.0
40	0x00000000	0.0
41	0x00000000	0.0
42	0x00000000	0.0
43	0x00000000	0.0
44	0x00000000	0.0
45	0x00000000	0.0
46	0x00000000	0.0
47	0x00000000	0.0
48	0x00000000	0.0
49	0x00000000	0.0
50	0x00000000	0.0
51	0x00000000	0.0
52	0x00000000	0.0
53	0x00000000	0.0
54	0x00000000	0.0
55	0x00000000	0.0
56	0x00000000	0.0
57	0x00000000	0.0
58	0x00000000	0.0
59	0x00000000	0.0
60	0x00000000	0.0
61	0x00000000	0.0
62	0x00000000	0.0
63	0x00000000	0.0
64	0x00000000	0.0
65	0x00000000	0.0
66	0x00000000	0.0
67	0x00000000	0.0
68	0x00000000	0.0
69	0x00000000	0.0
70	0x00000000	0.0
71	0x00000000	0.0
72	0x00000000	0.0
73	0x00000000	0.0
74	0x00000000	0.0
75	0x00000000	0.0
76	0x00000000	0.0
77	0x00000000	0.0
78	0x00000000	0.0
79	0x00000000	0.0
80	0x00000000	0.0
81	0x00000000	0.0
82	0x00000000	0.0
83	0x00000000	0.0
84	0x00000000	0.0
85	0x00000000	0.0
86	0x00000000	0.0
87	0x00000000	0.0
88	0x00000000	0.0
89	0x00000000	0.0
90	0x00000000	0.0
91	0x00000000	0.0
92	0x00000000	0.0
93	0x00000000	0.0
94	0x00000000	0.0
95	0x00000000	0.0
96	0x00000000	0.0
97	0x00000000	0.0
98	0x00000000	0.0
99	0x00000000	0.0

mlp_extractor.policy_net.4.weight f4 [100, 100]
0	0xbde4db99	-0.111746974
1	0xbeb02477	-0.3440282
2	0x3de4db19	0.11174602
3	0xbe25dfd8	-0.16198671
4	0x3e3273d3	0.17426996
5	0x3d35afe9	0.044357214
6	0x3e1dc65f	0.15407704
7	0x3cafbc1f	0.021452008
8	0xbd9f97d0	-0.07792628
9	0xbdafe9cf	-0.08589517
10	0x3e6832dc	0.22675651
11	0xbe0d28d0	-0.137851
12	0x3dd73110	0.10507405
13	0xbea7f4f4	-0.32804072
14	0x3d8ed85c	0.06974861
15	0xbe44379f	-0.19161843
16	0x3e6ea7d9	0.23306216
17	0xbe24c140	-0.16089344
18	0x3d08bf93	0.033385824
19	0x3a7cd7d9	0.0009645201
20	0xbdc6e698	-0.09711951
21	0xbe361a76	-0.17783532
22	0xbd932efc	-0.07186696
23	0x3e0f91b5	0.14020427
24	0x3d8f178a	0.069869116
25	0x3cb3a0c4	0.021927245
26	0xbe50d9a4	-0.20395523
27	0xbcd26f1b	-0.025687745
28	0xbd43659e	-0.04770433
29	0x3e207b28	0.1567198
30	0xb96e26bf	-0.00022711883
31	0xbf04225a	-0.51614916
32	0x3dc2685b	0.094925605
33	0x3e6bdb13	0.23032789
34	0x3d0ee0e6	0.03488245
35	0xbe3194b2	-0.17341879
36	0xbcb23fc1	-0.021758916
37	0x3dab0e0e	0.0835229
38	0xbd6ec23e	-0.058290713
39	0x3c8e4427	0.017366482
40	0xbdd43dee	-0.10363375
41	0x3b87ab24	0.0041402746
42	0x3e2cd9e6	0.16879997
43	0x3eb099e5	0.34492412
44	0xbc721235	-0.014774849
45	0xbe030779	-0.1279582
46	0x3db56d83	0.08858778
47	0x3e0513b4	0.12995797
48	0xbb843e84	-0.0040357728
49	0xbcea2560	-0.028582275
50	0x3c446223	0.011986288
51	0xbe28efb7	-0.16497694
52	0x3cc6ac5e	0.024252113
53	0xbd1ced43	-0.038312208
54	0xbd5dd498	-0.054157823
55	0xbbb3ec46	-0.0054908125
56	0xbe8325b0	-0.2561469
57	0x3def16f7	0.11674302
58	0xbd188140	-0.037232637
59	0xbd8b6a33	-0.06807365
60	0x3d1683b4	0.036746696
61	0x3eb5406b	0.3540071
62	0xbdc7ac2f	-0.09749638
63	0x3db1e572	0.08686341
64	0xbd01566c	-0.03157656
65	0x3dd4747b	0.103737794
66	0x3e138889	0.14407553
67	0x3d622829	0.05521408
68	0xbd19b054	-0.037521675
69	0xbe68fef7	-0.22753511
70	0xbded582f	-0.11589085
71	0xbce1213f	-0.027481673
72	0xbe233abf	-0.15940379
73	0xbddc7a8d	-0.10765562
74	0xb986c2ae	-0.0002570352
75	0x3e710e05	0.23540504
76	0x3cb7956c	0.022410117
77	0x3e89e7e7	0.2693474
78	0xbe448918	-0.19192922
79	0x3da3361e	0.079693064
80	0x3d430f32	0.047621913
81	0x3e12e1b6	0.14343914
82	0x3d975e3b	0.0739102
83	0x3e1c2a4e	0.15250513
84	0x3d0a37fd	0.0337448
85	0x3cbc2d32	0.02297077
86	0xbe341cfe	-0.17589185
87	0xbc43a235	-0.011940529
88	0x3e2a674e	0.1664097
89	0xbd483040	-0.04887414
90	0xbd261a88	-0.040552646
91	0x3db94f91	0.09048379
92	0xbe0f928f	-0.14020751
93	0x3d7db649	0.06194142
94	0x3dcc9cdb	0.09990855
95	0xbd5657e8	-0.052329928
96	0x3a7a6ee5	0.0009553268
97	0xbbebe9c5	-0.0071994984
98	0xbd0dbcf9	-0.034604046
99	0xbd40152d	-0.046895195
100	0x3db64bff	0.08901214
101	0x3e1d1781	0.15340997
102	0xbcb6d1de	-0.02231687
103	0x3e495038	0.19659507
104	0x3e6eed0b	0.23332612
105	0x3e8a2cde	0.26987356
106	0x3e0fe8d1	0.14053656
107	0x3d2a7862	0.041618712
108	0xbb6ce6b8	-0.0036148261
109	0xbdc53a26	-0.096302316
110	0x3e059c1e	0.13047835
111	0xbd28e0ac	-0.04122989
112	0x3e5cb56b	0.2155358
113	0xbe838fb2	-0.25695568
114	0xbd18e811	-0.03733069
115	0xbd8a73d9	-0.067603774
116	0xbe851721	-0.25994208
117	0xbd84a607	-0.0647698
118	0x3d931eba	0.07183595
119	0xbde0b317	-0.10971659
120	0xbc8cc3ad	-0.01718315
121	0x3c25d899	0.010122442
122	0xbbc4d827	-0.0060072127
123	0x3e037e0c	0.12841052
124	0xbe49692d	-0.19669028
125	0x3d346b1d	0.044047464
126	0xbe5b903b	-0.21441738
127	0x3977a425	0.00023616904
128	0xbc0c37b3	-0.008558202
129	0xbe0a38e6	-0.13498268
130	0x3e197e81	0.14989664
131	0x3d6014b6	0.05470725
132	0xbd9589db	-0.073016845
133	0x3e24e7a6	0.16103992
134	0xbdc699fa	-0.096973374
135	0x3e2f9535	0.17146762
136	0xbc37f9f5	-0.011229028
137	0x3c254511	0.0100872675
138	0xbc94c0ed	-0.0181584
139	0xbdc3bfa7	-0.09558039
140	0xbd64658c	-0.055760905
141	0x3e8ce7a9	0.27520493
142	0x3dd1e066	0.10247879
143	0xbdedcc68	-0.11611253
144	0x3d66e0d1	0.056366745
145	0xbd13742e	-0.03599947
146	0xbe0ea31b	-0.13929407
147	0x3e2ce43b	0.16883938
148	0xbeaba07d	-0.3352088
149	0x3e19575a	0.14974728
150	0x3e54b2c6	0.20771322
151	0x3db2962b	0.087200485
152	0x3e3985fa	0.18117514
153	0x3e8cf165	0.2752792
154	0x3d6ce643	0.057836782
155	0xbe08d562	-0.13362649
156	0x3e137314	0.14399368
157	0xbd85e924	-0.06538609
158	0x3d71bac2	0.059015997
159	0xbe793e3b	-0.24340145
160	0x3cb529d7	0.022114677
161	0xbd9bea6a	-0.0761307
162	0xbca0d9f6	-0.019635182
163	0x3d5e84bd	0.054325808
164	0xbd6197b0	-0.0550763
165	0x3d8af43b	0.067848645
166	0x3e5935ba	0.21211901
167	0xbe78626c	-0.24256295
168	0xbe135f7b	-0.14391892
169	0x3e0b27d1	0.13589408
170	0x3df90b7f	0.12160396
171	0x3d4b0b1c	0.04957114
172	0xbe311df8	-0.17296588
173	0x3b64beb4	0.0034903707
174	0x3e8c4a50	0.27400446
175	0xbd6918a1	-0.056908254
176	0x3de0e508	0.10981184
177	0xbdc73c41	-0.097282894
178	0x3cd20d21	0.025641026
179	0x3dc71c9f	0.09722256
180	0x3d59d8d1	0.053185288
181	0xbdf1ae68	-0.118008435
182	0xbd625baa	-0.0552632
183	0xbe4c5e17	-0.19957767
184	0x3bca89ff	0.006181001
185	0x3e19678f	0.1498091
186	0x3e1a7285	0.15082748
187	0xbe03c518	-0.12868154
188	0xbc8fb068	-0.017540172
189	0xbdc95573	-0.09830751
190	0x3d4be30f	0.049777087
191	0x3b8a3459	0.004217666
192	0xbe8874a7	-0.266515
193	0x3deed0e3	0.11660936
194	0x3ddbcbf0	0.10732257
195	0x3d79210b	0.060822528
196	0x3c065fc3	0.008201542
197	0x3c5f837e	0.01364219
198	0xbe97a622	-0.29618937
199	0xbeb1ed1d	-0.34751216
200	0xbd8b2e2f	-0.06795918
201	0x3d776952	0.060403176
202	0xbe9db815	-0.30804506
203	0x3ca82265	0.020524213
204	0xbd384789	-0.044990096
205	0x3dba3a6c	0.09093174
206	0xbafad9de	-0.0019138416
207	0xbde5b43e	-0.11216019
208	0x3e8db9ec	0.2768091
209	0x3d0ff4f1	0.035145704
210	0xbe1a5617	-0.15071903
211	0xbe7edf0d	-0.24889775
212	0xbc4465e6	-0.011987185
213	0xbd855a2e	-0.06511341
214	0x3d93cf29	0.07217247
215	0xbe2bc30f	-0.16773628
216	0xbac6308c	-0.0015120669
217	0xbe058073	-0.1303728
218	0x3e63c9a9	0.22244896
219	0x3e04f741	0.12984945
220	0x3d326cf6	0.043560944
221	0x3c391c1e	0.011298208
222	0x3daff472	0.08591546
223	0x3e0cec92	0.1376212
224	0xbe1b294e	-0.15152475
225	0xbdab513e	-0.08365105
226	0x3c1a25aa	0.009408394
227	0x3c4c7b04	0.012480501
228	0x3e997da8	0.2997868
229	0x3e47b21e	0.1950154
230	0x3e652fa3	0.22381453
231	0xbdcbdea2	-0.09954573
232	0xbe74ebd8	-0.23918092
233	0x3dd4adcf	0.10384714
234	0x3db883a5	0.09009484
235	0xbd53f15e	-0.051743858
236	0x3e248594	0.16066581
237	0xbc38f4c8	-0.011288829
238	0xbe0489a2	-0.12943128
239	0x3dbd7681	0.092511185
240	0x3e29c3ac	0.16578549
241	0x3d1b82f4	0.037966684
242	0x3d1fc712	0.039008208
243	0xbe3b4f1f	-0.18291901
244	0xbdadd7d5	-0.08488432
245	0xbdc60ad2	-0.096700326
246	0xbb9575f3	-0.00456118
247	0x3b13c57e	0.0022548134
248	0x3e42e5a3	0.19032912
249	0xbbb00b31	-0.005372428
250	0x3e09f04b	0.1347057
251	0x3e245cbd	0.16051002
252	0xbd1a8ec7	-0.03773382
253	0x3d5ef22f	0.054430183
254	0xbdbc76bc	-0.09202334
255	0x3cc18d05	0.023626814

mlp_extractor.policy_net.4.bias f4 [100]
0	0x00000000	0.0
1	0x00000000	0.0
2	0x00000000	0.0
3	0x00000000	0.0
4	0x00000000	0.0
5	0x00000000	0.0
6	0x00000000	0.0
7	0x00000000	0.0
8	0x00000000	0.0
9	0x00000000	0.0
10	0x00000000	0.0
11	0x00000000	0.0
12	0x00000000	0.0
13	0x00000000	0.0
14	0x00000000	0.0
15	0x00000000	0.0
16	0x00000000	0.0
17	0x00000000	0.0
18	0x00000000	0.0
19	0x00000000	0.0
20	0x00000000	0.0
21	0x00000000	0.0
22	0x00000000	0.0
23	0x00000000	0.0
24	0x00000000	0.0
25	0x00000000	0.0
26	0x00000000	0.0
27	0x00000000	0.0
28	0x00000000	0.0
29	0x00000000	0.0
30	0x00000000	0.0
31	0x00000000	0.0
32	0x00000000	0.0
33	0x00000000	0.0
34	0x00000000	0.0
35	0x00000000	0.0
36	0x00000000	0.0
37	0x00000000	0.0
38	0x00000000	0.0
39	0x00000000	0.0
40	0x00000000	0.0
41	0x00000000	0.0
42	0x00000000	0.0
43	0x00000000	0.0
44	0x00000000	0.0
45	0x00000000	0.0
46	0x00000000	0.0
47	0x00000000	0.0
48	0x00000000	0.0
49	0x00000000	0.0
50	0x00000000	0.0
51	0x00000000	0.0
52	0x00000000	0.0
53	0x00000000	0.0
54	0x00000000	0.0
55	0x00000000	0.0
56	0x00000000	0.0
57	0x00000000	0.0
58	0x00000000	0.0
59	0x00000000	0.0
60	0x00000000	0.0
61	0x00000000	0.0
62	0x00000000	0.0
63	0x00000000	0.0
64	0x00000000	0.0
65	0x00000000	0.0
66	0x00000000	0.0
67	0x00000000	0.0
68	0x00000000	0.0
69	0x00000000	0.0
70	0x00000000	0.0
71	0x00000000	0.0
72	0x00000000	0.0
73	0x00000000	0.0
74	0x00000000	0.0
75	0x00000000	0.0
76	0x00000000	0.0
77	0x00000000	0.0
78	0x00000000	0.0
79	0x00000000	0.0
80	0x00000000	0.0
81	0x00000000	0.0
82	0x00000000	0.0
83	0x00000000	0.0
84	0x00000000	0.0
85	0x00000000	0.0
86	0x00000000	0.0
87	0x00000000	0.0
88	0x00000000	0.0
89	0x00000000	0.0
90	0x00000000	0.0
91	0x00000000	0.0
92	0x00000000	0.0
93	0x00000000	0.0
94	0x00000000	0.0
95	0x00000000	0.0
96	0x00000000	0.0
97	0x00000000	0.0
98	0x00000000	0.0
99	0x00000000	0.0

mlp_extractor.value_net.0.weight f4 [100, 165]
0	0x3c13d5c5	0.009023135
1	0xbd68dd06	-0.05685141
2	0x3d27c20e	0.04095655
3	0x3d3ec6e0	0.04657638
4	0xbd250414	-0.040287092
5	0xbd496bde	-0.049175136
6	0x3e77a36e	0.24183437
7	0xbdae252c	-0.08503184
8	0x3bfb8e30	0.007676862
9	0x3d997357	0.074927025
10	0x3d9fa9e2	0.077960745
11	0xbd05ded1	-0.032683197
12	0xbded66e6	-0.11591892
13	0xbd547488	-0.051868945
14	0xbd7fd257	-0.062456455
15	0x3ceb62c3	0.028733617
16	0x3bb48af3	0.005509728
17	0xbe0e5309	-0.13898863
18	0x3d46169c	0.048361406
19	0xbd9e0ca3	-0.07717254
20	0xbd734e40	-0.059400797
21	0x3d51408c	0.051086947
22	0x3cd7aba0	0.026326954
23	0x3e26f64c	0.16304892
24	0xbe34a4d7	-0.17641006
25	0xbdd8fbab	-0.10594877
26	0xbd3446af	-0.04401272
27	0xbd30c949	-0.04316071
28	0x3c2e60f9	0.010643237
29	0x3e47ccbc	0.19511694
30	0x3cc13379	0.023584114
31	0xbda33983	-0.07969954
32	0x3e43a551	0.19106032
33	0xbe051c97	-0.12999187
34	0x3c448195	0.011993785
35	0xbb9c4bb5	-0.004769767
36	0xbb463e42	-0.003024951
37	0x3e2d3f03	0.16918568
38	0x3cc6810d	0.024231458
39	0xbcf49799	-0.029857444
40	0x3da9662e	0.08271442
41	0xbdd06959	-0.101763435
42	0xbdbc3bff	-0.09191131
43	0xbd545705	-0.0518408
44	0x3dec9131	0.115511306
45	0xbc5c66a4	-0.013452206
46	0xbce59765	-0.028026292
47	0xbd5a44d2	-0.05328829
48	0x3d4ca85e	0.049965255
49	0x3d8fd5f1	0.07023228
50	0x3e0e42b5	0.13892634
51	0xbe03fe0a	-0.12889877
52	0x3dac1568	0.084025204
53	0xbdf3d924	-0.11906651
54	0xbd09c29c	-0.03363286
55	0x3dcaa65e	0.09895013
56	0x3e44bb28	0.1921202
57	0x3dc637e2	0.096786276
58	0xbd0149fe	-0.031564705
59	0x3c912cf3	0.017721629
60	0xbdf10b04	-0.11769679
61	0xbdd89816	-0.10575883
62	0xbdb4640a	-0.088081434
63	0x3d5eb8a7	0.054375317
64	0x3d910b6c	0.07082257
65	0xbb4b5298	-0.0031024572
66	0xbdbab9bd	-0.09117458
67	0x3e2c0ff9	0.16802968
68	0xbe06a981	-0.13150598
69	0xbe14e30f	-0.14539741
70	0xbe4de8b3	-0.20108299
71	0xbde62d7a	-0.11239143
72	0xbd0a1d18	-0.033719152
73	0x3d0923db	0.03348146
74	0x3db723e8	0.089423954
75	0xbe33f20e	-0.17572805
76	0x3e179e5f	0.14806508
77	0x3d99976e	0.07499586
78	0xbd3bdbc6	-0.04586389
79	0xbe34bec9	-0.17650904
80	0xbe3f6994	-0.18692619
81	0x3dacda6f	0.084401004
82	0x3d0f49cd	0.03498249
83	0xbc44832f	-0.011994167
84	0xbac74bf4	-0.0015205131
85	0x3cd110fc	0.025520794
86	0x3dc3ef66	0.09567146
87	0x3cebd42c	0.028787695
88	0xbd101c34	-0.035183147
89	0x3b030d44	0.001999692
90	0xbe8d6ee8	-0.27623677
91	0x3dca1bd6	0.098685905
92	0x3e14e6ba	0.1454114
93	0x3bc486ad	0.0059975
94	0x3bfa37c2	0.0076360414
95	0xbdd09f46	-0.10186629
96	0xbd18355d	-0.037160266
97	0xbd13eb51	-0.036113087
98	0xbcd980a6	-0.026550602
99	0x3bd10939	0.0063792733
100	0x3ce97a45	0.028500685
101	0x3de0521e	0.109531626
102	0x3aba1c34	0.0014199079
103	0x3e7102ac	0.23536175
104	0x3c73b5b8	0.014874868
105	0x3e8901e0	0.26759243
106	0xbde4c60d	-0.11170588
107	0x3d9c26d0	0.076245904
108	0xbd8f9ca4	-0.07012299
109	0xbdbae8b2	-0.09126414
110	0xbaf7859c	-0.0018884423
111	0x3d885d61	0.066584356
112	0xbe1ebd87	-0.15501986
113	0xbd8aaed6	-0.067716286
114	0xbb83c363	-0.0040210946
115	0xbe5366da	-0.20644704
116	0x3e43a6c8	0.19106591
117	0xbe0e1d88	-0.13878453
118	0x3d69d028	0.05708328
119	0x3e547a5d	0.20749803
120	0xbe4bd071	-0.19903733
121	0x3d7ff308	0.062487632
122	0x3e212893	0.15738134
123	0x3e0ae34a	0.13563266
124	0x3db6854b	0.08912142
125	0x3e0ea85a	0.13931409
126	0xbdf7839b	-0.120856486
127	0x3dc6f193	0.097140454
128	0x3e66333f	0.22480486
129	0x3d35fab4	0.044428542
130	0xbe24dcbf	-0.16099833
131	0xbded9111	-0.11599935
132	0xbeb32273	-0.3498722
133	0xbe2be745	-0.16787441
134	0x3db010f5	0.08596984
135	0xbda215ce	-0.07914315
136	0xbda5aae1	-0.08089233
137	0xbd24fd9b	-0.04028092
138	0x3d8cb8c4	0.06871179
139	0x3d8370ac	0.06417975
140	0xbdb01c10	-0.085991025
141	0xbe178667	-0.14797364
142	0x3e013fd2	0.12622002
143	0xbe11d9de	-0.14243266
144	0xbd5c8a7b	-0.053843003
145	0x3d9c4fa8	0.07632381
146	0x3dcd6810	0.10029614
147	0xbe0382c2	-0.12842849
148	0xbe302581	-0.17201807
149	0xbdcea7ae	-0.10090576
150	0x3cc4627b	0.02397274
151	0x3d8f9a2f	0.0701183
152	0xbdfc5a2e	-0.12321888
153	0xbe214edf	-0.15752743
154	0xbe1b6367	-0.15174638
155	0xbcb69215	-0.022286454
156	0xbad77fb1	-0.0016441253
157	0xbdbb7bf3	-0.09154501
158	0x3dd03f23	0.101682924
159	0x3e106a43	0.14103036
160	0xbd8e1242	-0.06937076
161	0x3cab7603	0.020930296
162	0x3e0dfb75	0.13865454
163	0xbd83160c	-0.064006895
164	0x3c9e2d95	0.019308845
165	0xbaea31fe	-0.0017867682
166	0x3dba28c9	0.090898104
167	0x3df11bbd	0.11772869
168	0x3df83ddb	0.12121173
169	0x3c0cd58f	0.008595838
170	0xbda44e6a	-0.08022769
171	0x3d525d99	0.051358793
172	0x3d2e27ea	0.042518534
173	0x3e4289da	0.18997899
174	0x3d3cd04d	0.04609709
175	0xbdb3ee3a	-0.087856725
176	0xbcb65668	-0.022257999
177	0xbe23cb76	-0.15995583
178	0xbe17a9d4	-0.14810878
179	0xbd881b4e	-0.06645833
180	0xbe3429a2	-0.17594007
181	0x3c989582	0.018625978
182	0x3e770a6a	0.24125066
183	0xbe8ac747	-0.27105162
184	0x3e318839	0.17337121
185	0x3d79feb4	0.06103392
186	0xbe18f8cf	-0.14938663
187	0xbe59372d	-0.21212454
188	0x3bfc5f8d	0.00770182
189	0x3d1a5739	0.03768084
190	0xbda7c6aa	-0.08192189
191	0xbe5d3a56	-0.21604285
192	0xbdc35977	-0.095385484
193	0x3e2017e4	0.15634114
194	0x3e0c9d19	0.13731803
195	0x3e14e114	0.14538985
196	0xbd2b3290	-0.041796267
197	0x3d3756d7	0.04476055
198	0x3d2c4c6e	0.042065077
199	0x3ca27c75	0.019834736
200	0xbd944d0c	-0.07241258
201	0xbdacbbf4	-0.08434287
202	0x3de92f97	0.1138603
203	0xbd899d3a	-0.06719442
204	0x3e3cd589	0.18440832
205	0x3b08a189	0.0020848236
206	0x3d3a12f3	0.045428228
207	0x3bf0dc45	0.007350477
208	0x3d28a469	0.04117242
209	0xbdb9ba39	-0.09068722
210	0x3d8c677a	0.06855674
211	0x3c52beea	0.0128629
212	0xbe3b89e0	-0.18314314
213	0x3de48aa8	0.11159259
214	0xbdfdd26d	-0.12393651
215	0x3e814148	0.25245118
216	0x3e035818	0.12826574
217	0x3e5be0a3	0.21472411
218	0x3d0a7cff	0.03381061
219	0xbd0ae5d5	-0.03391059
220	0x3d91d6f7	0.071210794
221	0xbd634816	-0.05548867
222	0xbc03c111	-0.008041636
223	0xbd708488	-0.05872014
224	0xbda0f886	-0.07859902
225	0x3e39b9c2	0.18137267
226	0x3e06b3f0	0.13154578
227	0x3d806388	0.06268984
228	0x3d451728	0.048117787
229	0xbdf5206b	-0.11969074
230	0x3dbf08b7	0.09327834
231	0xbe2f24fc	-0.17103952
232	0x3d0462b7	0.032320704
233	0x3e15a72c	0.14614552
234	0x3c17692f	0.009241386
235	0xbdcfbc64	-0.101433545
236	0x3dc26f68	0.09493905
237	0xbd7e9f4e	-0.062163644
238	0xbe0008b0	-0.12503314
239	0x3e0ea34d	0.13929482
240	0x3d9caa79	0.076497026
241	0xbe2cd69d	-0.16878743
242	0x3db8890f	0.09010517
243	0xbdde834e	-0.10864888
244	0xbd4f46ac	-0.050604507
245	0x3e184268	0.14869082
246	0x3dbdc257	0.09265583
247	0xbcbb74b2	-0.022882793
248	0xbd795263	-0.060869586
249	0xbd8edad8	-0.06975335
250	0x3e0ddb99	0.13853301
251	0x3da55f5c	0.08074829
252	0xbbd2bb6f	-0.006431035
253	0x3e13858c	0.14406413
254	0x3d3c7044	0.046005502
255	0x3d4e92fb	0.05043314

mlp_extractor.value_net.0.bias f4 [100]
0	0x00000000	0.0
1	0x00000000	0.0
2	0x00000000	0.0
3	0x00000000	0.0
4	0x00000000	0.0
5	0x00000000	0.0
6	0x00000000	0.0
7	0x00000000	0.0
8	0x00000000	0.0
9	0x00000000	0.0
10	0x00000000	0.0
11	0x00000000	0.0
12	0x00000000	0.0
13	0x00000000	0.0
14	0x00000000	0.0
15	0x00000000	0.0
16	0x00000000	0.0
17	0x00000000	0.0
18	0x00000000	0.0
19	0x00000000	0.0
20	0x00000000	0.0
21	0x00000000	0.0
22	0x00000000	0.0
23	0x00000000	0.0
24	0x00000000	0.0
25	0x00000000	0.0
26	0x00000000	0.0
27	0x00000000	0.0
28	0x00000000	0.0
29	0x00000000	0.0
30	0x00000000	0.0
31	0x00000000	0.0
32	0x00000000	0.0
33	0x00000000	0.0
34	0x00000000	0.0
35	0x00000000	0.0
36	0x00000000	0.0
37	0x00000000	0.0
38	0x00000000	0.0
39	0x00000000	0.0
40	0x00000000	0.0
41	0x00000000	0.0
42	0x00000000	0.0
43	0x00000000	0.0
44	0x00000000	0.0
45	0x00000000	0.0
46	0x00000000	0.0
47	0x00000000	0.0
48	0x00000000	0.0
49	0x00000000	0.0
50	0x00000000	0.0
51	0x00000000	0.0
52	0x00000000	0.0
53	0x00000000	0.0
54	0x00000000	0.0
55	0x00000000	0.0
56	0x00000000	0.0
57	0x00000000	0.0
58	0x00000000	0.0
59	0x00000000	0.0
60	0x00000000	0.0
61	0x00000000	0.0
62	0x00000000	0.0
63	0x00000000	0.0
64	0x00000000	0.0
65	0x00000000	0.0
66	0x00000000	0.0
67	0x00000000	0.0
68	0x00000000	0.0
69	0x00000000	0.0
70	0x00000000	0.0
71	0x00000000	0.0
72	0x00000000	0.0
73	0x00000000	0.0
74	0x00000000	0.0
75	0x00000000	0.0
76	0x00000000	0.0
77	0x00000000	0.0
78	0x00000000	0.0
79	0x00000000	0.0
80	0x00000000	0.0
81	0x00000000	0.0
82	0x00000000	0.0
83	0x00000000	0.0
84	0x00000000	0.0
85	0x00000000	0.0
86	0x00000000	0.0
87	0x00000000	0.0
88	0x00000000	0.0
89	0x00000000	0.0
90	0x00000000	0.0
91	0x00000000	0.0
92	0x00000000	0.0
93	0x00000000	0.0
94	0x00000000	0.0
95	0x00000000	0.0
96	0x00000000	0.0
97	0x00000000	0.0
98	0x00000000	0.0
99	0x00000000	0.0

mlp_extractor.value_net.2.weight f4 [100, 100]
0	0xbe995774	-0.29949534
1	0x3d629e4c	0.055326745
2	0x3c717b27	0.014738834
3	0xbdb25099	-0.08706779
4	0xbd46cc38	-0.048534602
5	0x3d9335d3	0.071880005
6	0xbe27a75f	-0.16372441
7	0x3d77ec84	0.060528293
8	0x3cfbe472	0.03074858
9	0xbd5bb288	-0.053637058
10	0x3c11261b	0.008859183
11	0xbe0acf86	-0.13555726
12	0x3e1d5df7	0.15367876
13	0xbd029d27	-0.031888153
14	0xbdd3ad8f	-0.10335838
15	0x3b481bf1	0.0030534233
16	0xbe195c08	-0.14976513
17	0xbe02e2f6	-0.12781891
18	0xbd575e82	-0.052580364
19	0xbe41ed92	-0.18938282
20	0x3bf97007	0.0076122317
21	0x3e8ff2a6	0.28114814
22	0xbd3e55be	-0.04646849
23	0xbd0d88f5	-0.03455444
24	0x3c50ab27	0.012736118
25	0x3d20b888	0.039238483
26	0x3cca496e	0.024693217
27	0xbdf8f6e6	-0.12156467
28	0xbe3b9e5c	-0.18322128
29	0x3debd42e	0.115150794
30	0xbea3bc47	-0.31979582
31	0xbe569621	-0.20955707
32	0x3dda2f2c	0.106535286
33	0xbc8fdb19	-0.017560529
34	0xbe029f50	-0.12756085
35	0x3e87c369	0.26516274
36	0xbeb7685c	-0.35821807
37	0x3db187c3	0.086684726
38	0x3e336d51	0.1752217
39	0x3e6820c0	0.22668743
40	0x3e81a409	0.2532046
41	0xbcf6995e	-0.030102428
42	0x3e66078b	0.22463815
43	0xbea2aa5d	-0.31770602
44	0xbc701a02	-0.014654638
45	0xbe360d31	-0.1777847
46	0x3d1fdc03	0.03902818
47	0x3ccb38c3	0.02480734
48	0x3e653efc	0.22387308
49	0x3d831fba	0.06402536
50	0xbd9e1616	-0.07719056
51	0xbdd8293e	-0.10554741
52	0x3df2384f	0.11827146
53	0xbd42855f	-0.047490474
54	0xbe11fa1b	-0.14255564
55	0x3e3717c3	0.17880158
56	0xbe74a84c	-0.23892325
57	0x3dd4949b	0.10379907
58	0xbdf5079a	-0.119643405
59	0x3db252c6	0.08707194
60	0xbde95691	-0.11393464
61	0x39aee600	0.0003335923
62	0x38835748	6.262824e-05
63	0xbe0b2b6c	-0.13590783
64	0xbd09f68e	-0.0336824
65	0xbc3e4ed7	-0.011615477
66	0x3e24dbf8	0.16099536
67	0xbd61db79	-0.055140946
68	0xbe141212	-0.14460018
69	0x3d73154d	0.059346486
70	0x3e83b4b9	0.25723818
71	0x3d5f54ce	0.054524235
72	0x3d4c9f11	0.049956385
73	0xbd6f5182	-0.05842734
74	0xbd92e18a	-0.071719244
75	0xbd55acc6	-0.052166723
76	0x3d3ec8a6	0.046578072
77	0x3d3feafc	0.046854958
78	0xbeb193bd	-0.34683028
79	0xbe278fd1	-0.16363455
80	0xbe2a5d08	-0.16637051
81	0x3dc5fb03	0.09667017
82	0xbcf6bf76	-0.030120593
83	0x3b8b0d6f	0.004243545
84	0xbea9653e	-0.33085054
85	0xbdbbf451	-0.09177459
86	0x3e076300	0.13221359
87	0x3e873e10	0.26414537
88	0x3d0bb565	0.03410854
89	0xbb6b3b77	-0.0035893598
90	0x3e2c173a	0.16805735
91	0xbe0a5449	-0.13508715
92	0xbd685197	-0.056718435
93	0xbb696cf4	-0.003561792
94	0x3d34e11c	0.044159994
95	0x3d9dcbbc	0.07704875
96	0x3c8751e9	0.01651855
97	0x3d56674f	0.052344617
98	0xbdb58ef3	-0.08865156
99	0xbd89e367	-0.06732827
100	0xbd27350a	-0.040822066
101	0xbd9b4755	-0.07581965
102	0x3e36a78e	0.17837355
103	0xbde54e57	-0.11196583
104	0xbd9979df	-0.07493948
105	0xbdf7255a	-0.12067671
106	0x3e9b2c7e	0.30307382
107	0xbcd4f9b3	-0.025997972
108	0x3e593b7a	0.21214095
109	0xbe52bd2b	-0.20579974
110	0xbdb0a2c5	-0.08624796
111	0x3e6fee67	0.23430787
112	0xbcf5e812	-0.030017886
113	0x3e34444a	0.17604175
114	0xbd81432e	-0.06311642
115	0xbe5120c0	-0.2042265
116	0xbcaa2eb3	-0.020774221
117	0xbe2d2ce6	-0.16911659
118	0x3d5ca97d	0.053872574
119	0xbdff4da8	-0.12465984
120	0xbd0266cc	-0.031836316
121	0x3e17f8ff	0.14841078
122	0x3e492640	0.19643497
123	0xbc15972e	-0.009130282
124	0xbe3f59c4	-0.18686587
125	0xbe1877ff	-0.14889525
126	0x3de70d96	0.11281888
127	0xbd967739	-0.07346959
128	0x3bc9110f	0.0061360667
129	0xbcb3fb94	-0.021970548
130	0x3e089ad4	0.13340312
131	0x3daea4d8	0.08527535
132	0x3e1d34c0	0.15352154
133	0x3dceb63f	0.100933544
134	0x3e9a3fab	0.301267
135	0x3e2bf91c	0.16794246
136	0x3d90b77a	0.070662454
137	0xbcdc0d80	-0.026861906
138	0x3d075645	0.033041257
139	0xbe54c834	-0.20779496
140	0xbd510726	-0.051032208
141	0x3d1d2f74	0.038375333
142	0x3ea4c0b0	0.3217826
143	0xbe9dd68d	-0.30827752
144	0x3dcd7ca4	0.10033539
145	0x3df53037	0.11972087
146	0x3e131c81	0.14366342
147	0x3d4dd6ca	0.050253667
148	0x3e4823d6	0.1954492
149	0x3d0fb890	0.035088122
150	0x3d1304a5	0.0358931
151	0x3ea361fd	0.31910697
152	0xbe313180	-0.17304039
153	0x3dc73bd5	0.09728209
154	0x3ddbe9e4	0.107379705
155	0xbd8b42f1	-0.067998774
156	0x3e2bff4b	0.16796605
157	0x3e163c4b	0.14671437
158	0x3dc427b8	0.09577888
159	0x3bd006c6	0.0063484637
160	0xbe2226a6	-0.15835056
161	0x3d86fafc	0.0659084
162	0xbe788784	-0.24270445
163	0xbd9dcb0c	-0.07704744
164	0x3d11ee45	0.035627622
165	0xbdcaac1c	-0.098961085
166	0x3e086cff	0.13322829
167	0x3e0469ee	0.12931034
168	0x3e195b2d	0.14976187
169	0xbcade85e	-0.021228965
170	0x3e10c519	0.14137687
171	0xbdd94e0d	-0.1061059
172	0x3e3b056c	0.18263787
173	0xbdbb32fd	-0.091405846
174	0x3de8b9af	0.11363541
175	0x3d5ec788	0.054389507
176	0xbc91cc14	-0.017797507
177	0x3e139132	0.14410856
178	0x3de27642	0.11057712
179	0x3e6055f8	0.21907794
180	0x3e3e85a2	0.18605664
181	0xbd291023	-0.041275155
182	0x3e23f401	0.16011049
183	0x3c9e47af	0.01932129
184	0xbe3996cb	-0.18123929
185	0xbe7373df	-0.2377467
186	0x3d091b91	0.033473555
187	0x3d9ce027	0.07659941
188	0xbd5c9adf	-0.053858634
189	0xbe4f6f0a	-0.20257202
190	0xbda5a262	-0.08087613
191	0x3d7cad0d	0.06168847
192	0x3e1ec59e	0.15505072
193	0xbe93b1a1	-0.28846458
194	0x3b30fe20	0.002700694
195	0xbd7cd406	-0.06172564
196	0xbe0684d6	-0.1313661
197	0x3d49fc03	0.049312603
198	0x3b1b45e4	0.002369278
199	0xbdddba30	-0.10826528
200	0xbc2aa468	-0.010415174
201	0xbd96ad44	-0.073572665
202	0xbdd96a95	-0.10616032
203	0xbe542583	-0.20717435
204	0xbde1c4e5	-0.11023883
205	0x3da10aa0	0.07863355
206	0xbcc8c5ca	-0.024508376
207	0xbe0ed446	-0.13948163
208	0x3d596e10	0.05308348
209	0x3cf144e9	0.029451804
210	0xbd610636	-0.054937564
211	0x3eb0fbad	0.34567013
212	0x3df999e7	0.12187558
213	0xbdad02dd	-0.08447812
214	0xbdc6d2b6	-0.09708159
215	0xbb741f2c	-0.0037250025
216	0xb83ed76c	-4.5500157e-05
217	0x3e448d56	0.1919454
218	0x3d7b46af	0.061346706
219	0x3d46b0a9	0.04850832
220	0x3e35fa9e	0.17771384
221	0xbe302afa	-0.17203894
222	0xbe32d15f	-0.17462681
223	0xbd620448	-0.055179864
224	0xbd8e900d	-0.06961069
225	0x3d9386bd	0.07203434
226	0x3d9a9d3d	0.07549522
227	0xbdeb9861	-0.11503673
228	0xbe622958	-0.22086084
229	0x3e422ef8	0.1896323
230	0xbdc2fe1f	-0.09521126
231	0xbbdc58b5	-0.006724442
232	0x3e39df86	0.18151674
233	0xbd22559a	-0.039632417
234	0xbd9ebf48	-0.07751328
235	0x3dc0215c	0.09381363
236	0x3da57fbe	0.080810055
237	0x3dd71756	0.10502498
238	0x3d7e80ee	0.062134676
239	0xbdcbb410	-0.099464536
240	0xbe0e948b	-0.13923852
241	0x3e6eafcc	0.23309249
242	0xbe441d47	-0.19151793
243	0xbe2c2ce0	-0.16813993
244	0xbded9d2b	-0.11602243
245	0x3e096e13	0.13420896
246	0x3b54915d	0.0032435276
247	0xbcc5dd4c	-0.024153374
248	0xbe058dc1	-0.13042356
249	0xbdb06d8e	-0.08614646
250	0x3e74624f	0.23865627
251	0xbe1abd02	-0.15111163
252	0xbc361f5b	-0.011115874
253	0x3e751435	0.2393349
254	0xbe702493	-0.23451452
255	0x3e7f93ae	0.24958679

mlp_extractor.value_net.2.bias f4 [100]
0	0x00000000	0.0
1	0x00000000	0.0
2	0x00000000	0.0
3	0x00000000	0.0
4	0x00000000	0.0
5	0x00000000	0.0
6	0x00000000	0.0
7	0x00000000	0.0
8	0x00000000	0.0
9	0x00000000	0.0
10	0x00000000	0.0
11	0x00000000	0.0
12	0x00000000	0.0
13	0x00000000	0.0
14	0x00000000	0.0
15	0x00000000	0.0
16	0x00000000	0.0
17	0x00000000	0.0
18	0x00000000	0.0
19	0x00000000	0.0
20	0x00000000	0.0
21	0x00000000	0.0
22	0x00000000	0.0
23	0x00000000	0.0
24	0x00000000	0.0
25	0x00000000	0.0
26	0x00000000	0.0
27	0x00000000	0.0
28	0x00000000	0.0
29	0x00000000	0.0
30	0x00000000	0.0
31	0x00000000	0.0
32	0x00000000	0.0
33	0x00000000	0.0
34	0x00000000	0.0
35	0x00000000	0.0
36	0x00000000	0.0
37	0x00000000	0.0
38	0x00000000	0.0
39	0x00000000	0.0
40	0x00000000	0.0
41	0x00000000	0.0
42	0x00000000	0.0
43	0x00000000	0.0
44	0x00000000	0.0
45	0x00000000	0.0
46	0x00000000	0.0
47	0x00000000	0.0
48	0x00000000	0.0
49	0x00000000	0.0
50	0x00000000	0.0
51	0x00000000	0.0
52	0x00000000	0.0
53	0x00000000	0.0
54	0x00000000	0.0
55	0x00000000	0.0
56	0x00000000	0.0
57	0x00000000	0.0
58	0x00000000	0.0
59	0x00000000	0.0
60	0x00000000	0.0
61	0x00000000	0.0
62	0x00000000	0.0
63	0x00000000	0.0
64	0x00000000	0.0
65	0x00000000	0.0
66	0x00000000	0.0
67	0x00000000	0.0
68	0x00000000	0.0
69	0x00000000	0.0
70	0x00000000	0.0
71	0x00000000	0.0
72	0x00000000	0.0
73	0x00000000	0.0
74	0x00000000	0.0
75	0x00000000	0.0
76	0x00000000	0.0
77	0x00000000	0.0
78	0x00000000	0.0
79	0x00000000	0.0
80	0x00000000	0.0
81	0x00000000	0.0
82	0x00000000	0.0
83	0x00000000	0.0
84	0x00000000	0.0
85	0x00000000	0.0
86	0x00000000	0.0
87	0x00000000	0.0
88	0x00000000	0.0
89	0x00000000	0.0
90	0x00000000	0.0
91	0x00000000	0.0
92	0x00000000	0.0
93	0x00000000	0.0
94	0x00000000	0.0
95	0x00000000	0.0
96	0x00000000	0.0
97	0x00000000	0.0
98	0x00000000	0.0
99	0x00000000	0.0

mlp_extractor.value_net.4.weight f4 [100, 100]
0	0xbd749f7f	-0.05972242
1	0xba54aeb1	-0.0008113189
2	0x3d89f696	0.06736486
3	0xbe9d59da	-0.30732614
4	0x3e50360c	0.20333117
5	0xbe83bac1	-0.2572842
6	0x3c173f7d	0.009231445
7	0x3df56c73	0.11983576
8	0x3dfd57e6	0.12370281
9	0x3e98e643	0.29863176
10	0x3e7f89ed	0.24954958
11	0x3eb1d3a2	0.34731776
12	0xbe1c9e65	-0.15294798
13	0xbe15495a	-0.14578763
14	0x3e3ceb5a	0.18449154
15	0x3d4e861e	0.050420873
16	0x3e4bdc4b	0.19908254
17	0xbd7543e6	-0.059879206
18	0x3e15d216	0.14630923
19	0x3e2e1b71	0.17002656
20	0xbce663e3	-0.028123802
21	0xbe3ce789	-0.18447699
22	0x3df1a65b	0.11799308
23	0x3df30a76	0.1186723
24	0xbd2535b9	-0.040334437
25	0x3dec4ee8	0.11538488
26	0x3cb20b38	0.021733865
27	0x3dea7b69	0.1144932
28	0x3da5d7b4	0.08097783
29	0xbdb4564f	-0.088055246
30	0x3cdbca49	0.026829856
31	0x3cf91886	0.030407201
32	0xbcc52d48	-0.024069443
33	0x3eaa0469	0.3320649
34	0xbd4b17b3	-0.04958315
35	0x3d9c084a	0.076187685
36	0x3cba2a2c	0.022725187
37	0xbe58cdea	-0.211723
38	0x3d3a9577	0.045552697
39	0xbd33982e	-0.0438463
40	0x3c52337d	0.012829659
41	0x3c282a08	0.010263927
42	0x3e0ab716	0.13546404
43	0xbdeb3b64	-0.11485937
44	0xbe093910	-0.13400674
45	0xbc5728b9	-0.013132268
46	0xbd85041d	-0.06494925
47	0xbdba4ae2	-0.09096314
48	0x3d657ada	0.056025364
49	0xbaee15d2	-0.0018164462
50	0x3e27a9c3	0.16373353
51	0x3cfe1fa8	0.031020954
52	0xbe61f6a2	-0.22066739
53	0xbd600842	-0.054695375
54	0xbcad2f7f	-0.021140812
55	0x3e1c78ce	0.15280458
56	0xbddcc95d	-0.107805945
57	0x3e151bf3	0.14561443
58	0x3ea249e0	0.31696987
59	0x3d89c8b1	0.06727732
60	0xbc0f2202	-0.008736135
61	0xbcc81ea6	-0.024428677
62	0xbe517a5f	-0.20456837
63	0x3d9f3bec	0.07775101
64	0xbdff0fcb	-0.12454184
65	0xbe242a39	-0.16031732
66	0x3bd298ea	0.00642692
67	0xbcf09097	-0.02936582
68	0xbd224c2e	-0.03962343
69	0x3dee88a6	0.11647157
70	0x3d0a9a60	0.03383863
71	0x3d95946c	0.073037
72	0x3bb152b1	0.005411469
73	0x3ca6be2f	0.020354358
74	0x3d9fd511	0.07804311
75	0x3d5c32bf	0.053759333
76	0xbe4a54f9	-0.19758977
77	0xbe1649fc	-0.1467666
78	0x3ec53cd1	0.38522962
79	0x3db18100	0.08667183
80	0xbe50f6f8	-0.20406711
81	0x3bb6bdbe	0.0055768183
82	0xbea16759	-0.3152416
83	0xbc8b0419	-0.016969727
84	0xbbbe1804	-0.0058012027
85	0x3c9911a9	0.018685179
86	0x3d1dab6d	0.038493562
87	0xbe850a6a	-0.25984508
88	0xbe882b3f	-0.26595494
89	0x3dd60df6	0.104518816
90	0x3e148e4d	0.14507408
91	0xbd0b4645	-0.03400256
92	0x3c9b3712	0.018947158
93	0x3e02a23e	0.12757203
94	0xbe0ea1b6	-0.13928875
95	0x3dafe910	0.08589375
96	0xbe2532c8	-0.16132653
97	0xba87a4f4	-0.0010348842
98	0x3c75a21c	0.014992263
99	0xbdbc2107	-0.09185987
100	0x3d0ab320	0.033862233
101	0xbd7a041f	-0.061039086
102	0x3b5d3f73	0.0033759743
103	0xbe0d262b	-0.13784091
104	0x3e3e689c	0.18594593
105	0x3ba94763	0.0051659807
106	0xbd0cfe00	-0.03442192
107	0xbdc77c2c	-0.09740481
108	0xbd518b79	-0.051158402
109	0xbd8ff3b5	-0.07028905
110	0x3dd40dd0	0.10354197
111	0xbcbb3a47	-0.022854937
112	0x3b793944	0.0038028518
113	0x3d546b3f	0.05186009
114	0xbcc4581f	-0.0239678
115	0xbf01721e	-0.50564754
116	0xbc9c3531	-0.019068332
117	0xbe11929d	-0.14216085
118	0x3e0ec146	0.13940915
119	0x3db7965d	0.089642264
120	0x3d871cf3	0.065973185
121	0x3cc32fd4	0.023826517
122	0xbd05d57e	-0.032674305
123	0xbd5ec63e	-0.054388277
124	0x3e555eb2	0.20836905
125	0x3dc10227	0.09424239
126	0xbd2f39e3	-0.042779814
127	0x3db03ad0	0.086049676
128	0x3c86d640	0.016459584
129	0xbd367667	-0.04454651
130	0xbeb3a127	-0.35083887
131	0xbde4a460	-0.111641645
132	0x3e26be89	0.16283621
133	0xbddf5eec	-0.10906777
134	0x3e132ee6	0.14373359
135	0x3e6b929f	0.2300515
136	0xbe2fea40	-0.17179203
137	0xbe1cfe5e	-0.15331408
138	0x3dfb0322	0.12256457
139	0x3deb9235	0.11502496
140	0x3cc8ad94	0.024496831
141	0xba83738c	-0.0010028942
142	0x3cf44c06	0.029821407
143	0xbd9c0512	-0.076181546
144	0xbd453ebb	-0.048155528
145	0xbe213753	-0.15743761
146	0x3daad682	0.08341695
147	0x3d0c35f4	0.03423114
148	0xbde8cb04	-0.11366847
149	0xbd5a5496	-0.053303324
150	0x3d244230	0.040102184
151	0x3eba4ecd	0.36388245
152	0x3e4c2950	0.19937634
153	0xbcac0791	-0.020999702
154	0x3d0fd718	0.03511724
155	0x3dcc4ebb	0.09975954
156	0x3ca49055	0.020088354
157	0xbe2a8865	-0.16653593
158	0x3e47add1	0.194999
159	0xbdd9d345	-0.106359996
160	0x3dbfc28a	0.09363277
161	0x3e7c07c8	0.24612343
162	0xbdef1609	-0.11674125
163	0xbdd70171	-0.10498322
164	0xbd606d56	-0.05479177
165	0x3e3926f4	0.18081266
166	0xbe3df343	-0.18549828
167	0xbc518e38	-0.012790255
168	0x3d2e1ab6	0.042505942
169	0xbe3b795f	-0.18308018
170	0xbe88007c	-0.2656287
171	0xbe0c6820	-0.13711596
172	0xbe05d5ea	-0.13069883
173	0x3b27b92b	0.0025592546
174	0x3cb9144c	0.022592686
175	0x3d5ac37b	0.05340908
176	0x3e2b3470	0.16719222
177	0x3c4c2f22	0.012462409
178	0xbdf93996	-0.12169187
179	0xbe7c5cd5	-0.24644788
180	0xbde64840	-0.11244249
181	0x3e57faae	0.2109172
182	0x3d854f8c	0.06509313
183	0x3ddf53f5	0.109046854
184	0xbd43e3e4	-0.047824755
185	0xbdb08793	-0.08619609
186	0x3c067f3d	0.008209047
187	0x3da3d708	0.07999998
188	0xbe328f01	-0.17437364
189	0x3d914db2	0.07094897
190	0x3eb07b98	0.34469295
191	0xbe596023	-0.2122808
192	0x3e6a0361	0.22852851
193	0x3e8ff847	0.28119108
194	0x3d22f094	0.039780214
195	0xbe054461	-0.13014366
196	0x3e072580	0.13197899
197	0x3b924f4f	0.0044650207
198	0xbdc78b8f	-0.097434156
199	0x3d7b6f70	0.061385572
200	0xbd53a41e	-0.051670186
201	0xbdf7a6ca	-0.12092359
202	0xbdc0b0be	-0.09408711
203	0x3e369036	0.1782845
204	0xbe2b6c7b	-0.16740601
205	0xbe1270aa	-0.1430079
206	0xbdb3926e	-0.087681636
207	0xbd3d0d70	-0.046155393
208	0xbd7b4441	-0.06134439
209	0x3db9cead	0.090726234
210	0x3d665d23	0.056241166
211	0xbdfdae8e	-0.12386809
212	0xbeab09d2	-0.3340593
213	0xbdadc55e	-0.084849104
214	0x3dacc9db	0.084369384
215	0x3dd8d5a9	0.105876274
216	0x3cd8833c	0.026429765
217	0xbdc73eb0	-0.097287536
218	0x3df0aad3	0.11751332
219	0x3c0797ef	0.00827597
220	0xbe861535	-0.26188055
221	0xbd133f9a	-0.035949327
222	0xbdf828fc	-0.12117192
223	0x3e06498a	0.1311399
224	0x3e2bd40a	0.16780105
225	0xbe1d1038	-0.15338218
226	0xbe34c37d	-0.17652698
227	0x3cfb18ab	0.030651411
228	0xbe21fec7	-0.15819846
229	0xbe6076fe	-0.21920392
230	0x3cd99336	0.026559453
231	0x3c4312c6	0.011906331
232	0xbb7ec576	-0.003887502
233	0x3ccd011f	0.025024949
234	0xbe271075	-0.16314872
235	0xbd38aa1d	-0.045084108
236	0x3e46e243	0.1942225
237	0xbc163270	-0.009167299
238	0xbe8ea4a2	-0.2785998
239	0xbe08b39f	-0.1334977
240	0xbe0bba56	-0.136453
241	0x3d9d9198	0.076937854
242	0xbc38be5f	-0.011275857
243	0xbd838a08	-0.06422812
244	0x3e5795cf	0.21053241
245	0xbce79a7c	-0.028271906
246	0x3e12b234	0.14325792
247	0xbb9b74e8	-0.004744161
248	0xbd37769a	-0.04479084
249	0x3e591dfa	0.21202841
250	0x3e17d2a7	0.14826451
251	0xbc20d6bf	-0.009816824
252	0x3e3aad27	0.18230115
253	0x3d850954	0.0649592
254	0xbda2c5cd	-0.07947884
255	0xbe01efcd	-0.12689133
