ILAEDA/BC_Initialization/cyber_security/policy.pth (torch, 329426 bytes, 15 tensors)

mlp_extractor.policy_net.0.weight f4 [100, 165]
000000 36 4d a3 3c 2e ab ff bb c3 53 00 3e cb 07 40 3e
       0.019934278 -0.0078023886 0.12531953 0.18752973
000010 61 e5 a8 3d d4 b6 99 bb 0f b7 19 3d e2 1b 30 3d
       0.082468756 -0.0046909843 0.037528094 0.04299534
000020 98 42 aa 3d 53 5a 4f 3d f7 0d 48 3e 0f c4 2f 3e
       0.08313483 0.05062325 0.19536577 0.17164634
000030 4c f8 a2 bd bb fa 16 bb 0b 70 0a be 15 ba 6d be
       -0.07957515 -0.002303763 -0.13519304 -0.23215516
000040 b2 26 55 3c 98 2e 8a 3e 26 34 5f 3d 8b d8 7c bd
       0.013009714 0.26988673 0.054493092 -0.06172995
000050 c7 fd 8c bc 84 6a 16 3e 53 f0 e9 bd b5 47 0d bd
       -0.017210854 0.1468907 -0.11422791 -0.034492213
000060 98 c9 e9 3d 65 30 bc 3d 34 b7 50 be 8f af ea 3d
       0.11415404 0.09188918 -0.20382386 0.114592664
000070 63 48 7b 3d 78 58 35 3e 44 70 88 3c bd 07 0c 3e
       0.06134833 0.1770953 0.016655095 0.13674827
000080 96 23 fc 3d c9 3f 59 3e 26 b5 76 3d cc c6 3a be
       0.12311475 0.21215738 0.06023135 -0.18239897
000090 06 e6 a2 3c 6b 82 dc 3c c3 a1 7b bd 06 00 14 3e
       0.019885074 0.026917657 -0.061433565 0.14453134
0000a0 9c 15 95 bd 5d 5d b3 bd 1b 64 81 bc e7 d4 c4 bd
       -0.07279512 -0.08758042 -0.015794804 -0.096109204
0000b0 04 b7 82 3d 32 ff f3 3d 13 a1 81 bd 4b fe 30 bd
       0.06382564 0.11913909 -0.063295506 -0.043211263
0000c0 a4 ea 5c 3d fd 61 0d bd e0 8a 5b bd e2 a0 e3 bd
       0.05393471 -0.034517277 -0.05359924 -0.1111467
0000d0 5b cb 41 3d 98 ee 99 3c 72 c8 8e bd 48 84 1e be
       0.047313076 0.018790528 -0.06971826 -0.15480149
0000e0 ea 2e e8 3d 6e f1 86 bd a1 91 2c bd 74 af a7 bd
       0.11337073 -0.06589018 -0.04213107 -0.08187762
0000f0 ec f6 59 bd 4a 35 01 bd 04 83 99 3d 0f 86 4e 3e
       -0.053214 -0.03154496 0.07495692 0.20168327
000100 c3 0d b5 bc ba 85 2b bd 64 2f d7 3c 13 09 17 be
       -0.022101289 -0.04187558 0.026267715 -0.14749555
000110 ad 23 18 be 5b b5 60 bd 05 de f2 3d b7 9b 3e bd
       -0.14857359 -0.054860454 0.11858753 -0.04653522
000120 59 e2 10 3e 35 56 40 3d 66 5f 83 3d 7c 32 fa 3d
       0.14148845 0.046957213 0.0641468 0.122166604
000130 1a 8e 4b bd 08 19 37 bc 0f 74 ba 3d 16 40 a3 bd
       -0.049696065 -0.0111754015 0.09104168 -0.07971208
000140 eb ff 8a bb 4d ef 4c be f6 34 b8 bc 7c 46 e0 bd
       -0.0042419336 -0.20013161 -0.022486191 -0.10950944
000150 d1 f6 da bc 1d b1 82 3c 28 c9 0d 3e 15 e6 41 3e
       -0.02672902 0.015953595 0.13846266 0.18935426
000160 15 20 7c bd 7e 02 40 bd 73 41 24 3e a5 c6 9b bd
       -0.061554033 -0.046877377 0.16040592 -0.07606248
000170 48 f7 a6 3d 76 3a 91 bd 7c ef 03 3e 2b 53 f2 bc
       0.08152634 -0.07091229 0.12884325 -0.029580673
000180 11 82 ff bd 66 64 8d bd 01 e9 f9 bd 7d a0 ab 3c
       -0.1247598 -0.06903915 -0.12202645 0.02095055
000190 48 ce 08 3e f8 44 09 be 55 e3 53 3d c8 d8 07 3e
       0.1335994 -0.13405216 0.051730473 0.13266289
0001a0 94 95 bf 3d 54 2a cc bd be f2 76 3e c2 d4 f5 3d
       0.09354702 -0.09969011 0.24116036 0.12003471
0001b0 10 83 71 3d f8 d6 7d 3e 27 85 36 be c9 78 52 bd
       0.05896288 0.24789035 -0.17824231 -0.05138472
0001c0 b8 bd 08 3e 45 6c 05 3e 32 2b a8 bd 56 af 7b 3d
       0.13353622 0.13029583 -0.08211364 0.06144651
0001d0 66 5a 38 bd 10 62 af 3c f1 cd 85 3d af 08 d7 bc
       -0.045008086 0.021409065 0.06533421 -0.026249258
0001e0 1d 07 35 3d b7 ba f1 bc 29 e7 69 bd b4 22 b9 bd
       0.044196237 -0.029507978 -0.057105217 -0.09039822
0001f0 a1 75 f1 bd 39 67 00 be b3 d8 83 3d 09 02 cd ba
       -0.11790014 -0.12539376 0.064378165 -0.0015640865
000200 50 b1 35 bd 91 30 e5 3d 63 db 95 3e d4 51 a5 3a
       -0.04435855 0.11190904 0.2926894 0.0012612888
000210 da 5e 08 bd ae 17 59 3e b1 aa 89 3d e0 33 4e be
       -0.033293582 0.2120044 0.0672201 -0.20136976
000220 35 df 4a bd fa e6 2e 3d c1 25 80 bd 4e be 39 3c
       -0.049529273 0.042700745 -0.06257201 0.011336876
000230 99 d7 a0 3b e4 e2 e7 bd dc 53 36 be 75 9a c9 3b
       0.0049085137 -0.11322573 -0.17805427 0.006152446
000240 69 39 90 be 52 97 60 3e a8 2a e5 3c 00 9a 2e 3e
       -0.281688 0.21932724 0.027974442 0.17050934
000250 83 c2 c4 bd ab 69 0b 3e af d6 d9 bd 26 6a 20 3e
       -0.09607413 0.13614528 -0.10636651 0.15665492
000260 d7 d5 8e bd bf 4f 17 3d c9 f4 b5 3c bb 7a 2b be
       -0.069743805 0.036941286 0.02221145 -0.16746037
000270 d8 94 e5 3d 50 71 4a bd 11 b3 92 bd b9 ea 18 3d
       0.1121003 -0.04942447 -0.071630605 0.037333224
000280 a2 08 cc bd 16 9c 55 3c ab ae eb 3d 51 73 ea bd
       -0.09962584 0.013037702 0.11507925 -0.11447776
000290 6a 88 30 bc 7a 5a 61 bd 8f e4 2f bd d2 18 f7 3c
       -0.010774711 -0.055017926 -0.04294258 0.030163202
0002a0 90 20 fa 3c 80 a5 ec 3d 57 c9 e6 bd 1d a2 34 be
       0.030533105 0.11555004 -0.11268871 -0.17639966
0002b0 66 7f a0 3e 8d bd 68 bd 8f 07 ab 3d 66 f3 b2 3c
       0.31347197 -0.056821395 0.08351051 0.021844577
0002c0 36 9e 83 bd 78 36 f8 bc 16 8b 25 bd cd b3 e9 3d
       -0.06426661 -0.03029941 -0.040415846 0.114112474
0002d0 22 60 4a 3e 18 bd 8b bc 8c 4a bd 3c 63 c1 97 3c
       0.19763234 -0.01705794 0.023106836 0.018524831
0002e0 64 63 46 3d f6 6b c6 3d 76 43 04 3e 16 95 e7 bd
       0.04843463 0.09688561 0.1291636 -0.11307733
0002f0 c0 be e2 bd ff ed 06 3e 92 76 1d bc 0c cc d1 bd
       -0.11071539 0.13176726 -0.009610789 -0.10243997
000300 b3 1a 9e 3c 05 f1 d6 bc b7 81 e4 3c 51 05 b8 bc
       0.01929984 -0.026237974 0.027893884 -0.022463473
000310 a7 34 bc 3d ba 4d 9d 3c c6 0f 97 3c f3 0b bc bd
       0.0918973 0.019202102 0.018440139 -0.09181967
000320 27 a4 74 3d db 20 09 bc 49 57 cb bd 67 7e 0b be
       0.05972686 -0.00836965 -0.09928758 -0.13622437
000330 2a 76 3b 3e 34 19 2b 3e ee 35 c4 3c c9 42 31 bb
       0.18306795 0.16708833 0.023951497 -0.0027047864
000340 47 22 92 bc ee 15 5a be d3 21 48 bd 7f de e8 3d
       -0.01783861 -0.21297428 -0.048860382 0.11370563
000350 a1 ac 16 be f6 eb fc 3d c9 0f d4 bd 6c bc 12 3e
       -0.1471429 0.123496935 -0.10354573 0.1432969
000360 7b 2b 5b be 34 ac 5c bd 66 4c bd bd 8d 62 3e be
       -0.21403305 -0.053875163 -0.092430875 -0.18592282
000370 7a a8 a0 3b e8 13 c1 ba a0 cf 33 3d e8 12 ba bd
       0.0049028965 -0.0014730664 0.04389918 -0.09085637
000380 7a 45 e7 bd a6 32 96 bc b3 e0 00 3d e4 77 bf 3c
       -0.112925485 -0.018334698 0.03146429 0.023372598
000390 be 70 ed bd 18 ef 65 3d 7d 77 20 3e cc dc 9c bd
       -0.115937695 0.05613622 0.15670581 -0.07659301
0003a0 60 fb cd bc 41 49 03 bd 78 32 fe bd 6f 92 e9 bd
       -0.025144279 -0.032052282 -0.1241197 -0.11404883
0003b0 b8 ee 35 3e e7 c8 ac bd 12 12 0b bd 66 93 5b 3e
       0.17766845 -0.084367566 -0.03395278 0.21442947
0003c0 4d 88 73 bc dc ae 49 3e 1d 16 e4 3d 5c 0e 30 3c
       -0.01486404 0.1969561 0.1113703 0.010745611
0003d0 c2 e0 0e 3e 13 20 3c bc 38 a5 41 be f7 97 a5 bd
       0.13952926 -0.011482256 -0.18910682 -0.080856256
0003e0 c6 9d 0e bd 33 88 58 3b 20 03 8a bd 22 83 65 3e
       -0.034818433 0.0033040165 -0.06738877 0.22413304
0003f0 83 b2 39 be 31 44 8c bd 1a 32 f5 3d 73 95 e0 bd
       -0.18134503 -0.06848944 0.11972447 -0.10966005

mlp_extractor.policy_net.0.bias f4 [100]
000000 00 00 00 00 00 00 00 00 00 00 00 00 00 00 00 00
       0.0 0.0 0.0 0.0
000010 00 00 00 00 00 00 00 00 00 00 00 00 00 00 00 00
       0.0 0.0 0.0 0.0
000020 00 00 00 00 00 00 00 00 00 00 00 00 00 00 00 00
       0.0 0.0 0.0 0.0
000030 00 00 00 00 00 00 00 00 00 00 00 00 00 00 00 00
       0.0 0.0 0.0 0.0
000040 00 00 00 00 00 00 00 00 00 00 00 00 00 00 00 00
       0.0 0.0 0.0 0.0
000050 00 00 00 00 00 00 00 00 00 00 00 00 00 00 00 00
       0.0 0.0 0.0 0.0
000060 00 00 00 00 00 00 00 00 00 00 00 00 00 00 00 00
       0.0 0.0 0.0 0.0
000070 00 00 00 00 00 00 00 00 00 00 00 00 00 00 00 00
       0.0 0.0 0.0 0.0
000080 00 00 00 00 00 00 00 00 00 00 00 00 00 00 00 00
       0.0 0.0 0.0 0.0
000090 00 00 00 00 00 00 00 00 00 00 00 00 00 00 00 00
       0.0 0.0 0.0 0.0
0000a0 00 00 00 00 00 00 00 00 00 00 00 00 00 00 00 00
       0.0 0.0 0.0 0.0
0000b0 00 00 00 00 00 00 00 00 00 00 00 00 00 00 00 00
       0.0 0.0 0.0 0.0
0000c0 00 00 00 00 00 00 00 00 00 00 00 00 00 00 00 00
       0.0 0.0 0.0 0.0
0000d0 00 00 00 00 00 00 00 00 00 00 00 00 00 00 00 00
       0.0 0.0 0.0 0.0
0000e0 00 00 00 00 00 00 00 00 00 00 00 00 00 00 00 00
       0.0 0.0 0.0 0.0
0000f0 00 00 00 00 00 00 00 00 00 00 00 00 00 00 00 00
       0.0 0.0 0.0 0.0
000100 00 00 00 00 00 00 00 00 00 00 00 00 00 00 00 00
       0.0 0.0 0.0 0.0
000110 00 00 00 00 00 00 00 00 00 00 00 00 00 00 00 00
       0.0 0.0 0.0 0.0
000120 00 00 00 00 00 00 00 00 00 00 00 00 00 00 00 00
       0.0 0.0 0.0 0.0
000130 00 00 00 00 00 00 00 00 00 00 00 00 00 00 00 00
       0.0 0.0 0.0 0.0
000140 00 00 00 00 00 00 00 00 00 00 00 00 00 00 00 00
       0.0 0.0 0.0 0.0
000150 00 00 00 00 00 00 00 00 00 00 00 00 00 00 00 00
       0.0 0.0 0.0 0.0
000160 00 00 00 00 00 00 00 00 00 00 00 00 00 00 00 00
       0.0 0.0 0.0 0.0
000170 00 00 00 00 00 00 00 00 00 00 00 00 00 00 00 00
       0.0 0.0 0.0 0.0
000180 00 00 00 00 00 00 00 00 00 00 00 00 00 00 00 00
       0.0 0.0 0.0 0.0

mlp_extractor.policy_net.2.weight f4 [100, 100]
000000 09 f8 7d be 4c 5f 06 3e 37 44 7d be 03 32 1f 3e
       -0.24801649 0.1312229 -0.24733053 0.15546422
000010 7f 4c ca 3d dd ad 01 3e 8e db 55 3e 68 6f 05 3e
       0.09877872 0.1266398 0.20884535 0.1303078
000020 25 df a0 3d f3 a0 8a bd ea 8c 2d bd 92 a7 d5 3d
       0.078550614 -0.0676898 -0.042370714 0.10432352
000030 79 91 4d bc a8 04 4b be 8b 2f d0 bc 7e 7b 6d bd
       -0.01254689 -0.19825995 -0.025413295 -0.0579791
000040 c7 09 44 be 5a 55 8c bd 97 61 80 3e eb fb 26 bc
       -0.19144355 -0.06852217 0.25074455 -0.010191898
000050 c3 23 9c 3e fb 7e 07 be c7 46 67 3d 3d 14 1b 3e
       0.30496034 -0.13232033 0.056463983 0.15144439
000060 93 08 6f 3d 7b 59 2b be d0 f3 25 be a5 4b 8e bc
       0.058357786 -0.16733353 -0.16206288 -0.017370054
000070 95 92 17 3d 23 7d 02 be 1e 9d 38 3d 9f 95 4c 3d
       0.037005026 -0.12743048 0.045071714 0.049947377
000080 e2 ff 05 be 24 e4 57 be 31 df 4f bd 4b ec 9b 3d
       -0.13085893 -0.21083122 -0.05074996 0.07613429
000090 ea f6 28 bd 97 ce 40 bd 93 f7 4a 3c 01 0e 98 3e
       -0.0412511 -0.04707202 0.012388128 0.29698184
0000a0 3f e9 61 bc 90 4c ab 3d 4d f8 ff 3d 73 7f 23 be
       -0.01378852 0.083642125 0.124985315 -0.15966587
0000b0 f6 9b 48 bc a0 d9 ab bd fb b7 59 bd 0c f8 03 3e
       -0.012244215 -0.08391118 -0.053153973 0.12887591
0000c0 5d 3c 10 be 20 5d 44 be 16 c7 2b bd be 3e 1e 3e
       -0.14085527 -0.1917615 -0.04193791 0.15453622
0000d0 0b 9e 84 be 45 62 1a 3e dc 09 8c 3d 35 25 26 3e
       -0.25901827 0.1507655 0.06837818 0.16225131
0000e0 b3 69 2b 3d 6f ab 8e 3d 06 16 8d 3e 0e a0 b0 3d
       0.04184885 0.06966292 0.27555865 0.08624278
0000f0 43 69 43 bd d4 52 89 bd 93 18 e9 bd 30 ea 6b 3e
       -0.047707807 -0.06705251 -0.1138164 0.23038554
000100 92 36 4c 3c a8 1a 0d be de 1e c1 3d 39 9f da 3d
       0.012464182 -0.137797 0.094297156 0.106749006
000110 c6 34 e2 bd 1c b7 4c 3d 81 58 a2 3e aa 26 38 be
       -0.11045222 0.049979314 0.31708148 -0.17983499
000120 eb c1 07 3e d9 5e 41 3e 4a 9a 84 3d 4b 66 6d bd
       0.13257568 0.18883838 0.06474741 -0.057958882
000130 0b f5 27 bb 5f d0 1a be 56 7e 62 3d cf fe 84 3d
       -0.0025628235 -0.1511855 0.055296265 0.064939134
000140 05 b3 61 bb ce fa 07 be 81 e8 2d 3d 49 68 14 be
       -0.003443898 -0.13279268 0.04245806 -0.14492907
000150 af 69 ac be 19 e1 14 be d6 ac 88 3e b5 98 5e bd
       -0.3367438 -0.14538993 0.26694363 -0.05434485
000160 14 c8 8f bd c3 cd 4b 3e ba 70 54 be 4a d7 d8 bc
       -0.07020584 0.1990271 -0.20746127 -0.026469845
000170 12 54 4c 3d 75 c0 a5 3d 05 01 db 3d 8f 45 1e be
       0.049884863 0.08093349 0.10693554 -0.15456222
000180 b3 74 88 be 87 c9 eb bd 92 a7 d1 bd 46 07 82 3d
       -0.26651534 -0.11513048 -0.102370396 0.063490435
000190 17 ee ee 3d 4d 79 c4 bd eb 14 19 3d 07 ce 31 3d
       0.11666506 -0.09593449 0.037373465 0.043409374
0001a0 1a cf fe bc 80 53 53 3e 73 f9 9f bd 1c 83 b0 bd
       -0.031104613 0.20637321 -0.078112505 -0.08618757
0001b0 05 2b d8 3c 50 7d 44 3e 13 ee 45 3e d3 47 c5 3d
       0.0263877 0.19188428 0.193291 0.0963284
0001c0 00 a0 20 3e e6 f7 d2 be c1 2a 42 3a 09 af e1 3d
       0.15686035 -0.41204756 0.00074068835 0.110197134
0001d0 29 d2 00 3d 05 cd 3f be 30 49 ba 3d be e5 a0 3d
       0.031450424 -0.18730552 0.09095991 0.0785632
0001e0 0c f9 07 3e 33 4d c1 bd 86 57 5a 3e 93 d6 68 be
       0.13278598 -0.09438553 0.2132245 -0.22738104
0001f0 d7 0a 04 bd 00 fd 48 bd 81 90 86 3e 68 f6 56 bd
       -0.0322369 -0.049069405 0.26282123 -0.052481085
000200 6d 83 b4 3b 26 fe 44 3e fb a5 b3 bb 1f f4 35 3d
       0.0055088312 0.19237575 -0.005482433 0.044422265
000210 6c 95 37 bd 05 b5 97 3d a7 9f 95 3d 0a 84 59 3e
       -0.044820234 0.074075736 0.07305842 0.21241775
000220 9b b9 40 3e 98 6e 9f bd 53 29 88 be 77 97 4a be
       0.18820803 -0.07784766 -0.26594028 -0.19784342
000230 7f 53 4d 3e 65 f7 93 3d 73 98 15 3d 9e cf 5a 3e
       0.20051382 0.07224921 0.03652234 0.21368262
000240 c7 09 5b 3e 55 2f 29 3e 16 49 de bc ee 52 71 bd
       0.21390449 0.16521962 -0.02713446 -0.05891698
000250 f4 19 c7 bd 98 f6 10 3e f8 e5 29 3e ab a8 f5 bd
       -0.09721747 0.14156568 0.16591632 -0.119950615
000260 3b 2f 51 bd cd 12 c0 3c 65 df 5a be 12 79 e8 3d
       -0.051070433 0.023446465 -0.21374281 0.11351217
000270 53 6c 24 be 7d 6a e8 bd b1 ef 85 3e 50 f2 98 3d
       -0.16056947 -0.11348436 0.26159433 0.074680924
000280 ff 75 41 be ed c9 f0 bc 0f b6 2c 3d d7 9c a8 3d
       -0.18892668 -0.02939316 0.042165812 0.0823304
000290 df 1b 35 be 57 3b 9b be b4 de 85 3d f6 6d 49 bc
       -0.17686413 -0.3031871 0.06536618 -0.012294283
0002a0 2a 0b 46 bd 3a f7 25 3d 9d d1 9f 3d 49 c0 2e 3e
       -0.04835049 0.040518977 0.078036524 0.17065538
0002b0 22 05 a9 3d 83 b2 79 bc 36 2c f8 bc 49 89 03 3e
       0.08252932 -0.015240314 -0.030294519 0.12845339
0002c0 4f 0e a3 3e a2 36 9f 3d f0 bc 7b 3e e1 43 91 3c
       0.31846854 0.07774092 0.24583793 0.017732562
0002d0 87 73 6f 3d bf 37 ab bc d6 bb 48 3e 1d 59 4f 3c
       0.058459785 -0.020900605 0.19602904 0.012655524
0002e0 3f 29 29 3e 6a 2b 9a bc 73 42 3f be 12 67 c5 bd
       0.1651964 -0.01881953 -0.18677692 -0.096388
0002f0 bf ab 63 be 34 d9 05 bd 88 97 95 3c ce 91 a9 3c
       -0.22233485 -0.032677844 0.018260732 0.020699408
000300 5a 24 0f 3e e1 75 0f 3e 22 d1 8a 3d 3c 80 25 be
       0.13978711 0.14009811 0.0677817 -0.16162199
000310 87 2c 19 be 38 87 3b 3d 73 9a 5f 3e cb bf cb bc
       -0.14958392 0.04578325 0.21836261 -0.024871727
000320 5d 61 56 3e f1 21 80 bb d2 da c3 bd 68 81 0e 3b
       0.20935579 -0.003910296 -0.09563221 0.0021744613
000330 af f2 82 3d 53 64 6f 3c 64 4e 3b 3e 22 87 0d be
       0.063939445 0.0146113215 0.18291622 -0.1382108
000340 27 b9 e2 3d 4f e1 7f 3d 0c d3 33 bd 5f b0 3c bd
       0.11070471 0.06247073 -0.04390244 -0.046066638
000350 26 f1 c2 be b1 bc 87 be 62 c3 00 3d 7b 00 36 be
       -0.38074607 -0.26511148 0.03143633 -0.17773621
000360 21 c2 2d 3e 5a b8 4f 3d 4a 52 e0 3c 18 04 5c be
       0.16968586 0.05071292 0.027382988 -0.21485937
000370 81 4c 6a 3e f3 22 19 3b ec 0e 2b bc be 4e ae bd
       0.22880746 0.0023366779 -0.010440569 -0.08511113
000380 c4 1f 3c 3d cd c0 8a bb ea 5e 4b bc 69 b2 45 3d
       0.04592873 -0.0042344094 -0.012412766 0.04826585
000390 a1 6a 20 3e a4 be e7 bd e1 1d d5 3d c5 bd 89 be
       0.15665676 -0.11315659 0.104060896 -0.26902595
0003a0 37 79 50 3e 5a 25 d1 bd 61 d4 f0 bb 0a 91 07 be
       0.2035874 -0.10212202 -0.0073495363 -0.13238922
0003b0 08 12 6e 3e 0e 89 f8 3d 88 1d 02 3e a6 2b 74 3d
       0.23249066 0.12135516 0.12706578 0.05961194
0003c0 0e 18 6e 3c 7c 69 a8 3d 2e 58 0f 3e 06 69 d3 3c
       0.014532102 0.082232445 0.13998482 0.025806915
0003d0 dc 6b 70 3c 1f ca 07 bc 30 4c 1e 3d 99 a8 3c 3e
       0.014674153 -0.0082879355 0.038646877 0.1842369
0003e0 cc ca ba bd 37 15 08 3d 33 f9 b5 3d 5e 94 44 bd
       -0.09120712 0.033223357 0.088854216 -0.047993056
0003f0 7b c2 b7 3e 82 cd a7 bb 38 b0 7b be 72 61 92 be
       0.35890564 -0.005120934 -0.24578941 -0.2858997

mlp_extractor.policy_net.2.bias f4 [100]
000000 00 00 00 00 00 00 00 00 00 00 00 00 00 00 00 00
       0.0 0.0 0.0 0.0
000010 00 00 00 00 00 00 00 00 00 00 00 00 00 00 00 00
       0.0 0.0 0.0 0.0
000020 00 00 00 00 00 00 00 00 00 00 00 00 00 00 00 00
       0.0 0.0 0.0 0.0
000030 00 00 00 00 00 00 00 00 00 00 00 00 00 00 00 00
       0.0 0.0 0.0 0.0
000040 00 00 00 00 00 00 00 00 00 00 00 00 00 00 00 00
       0.0 0.0 0.0 0.0
000050 00 00 00 00 00 00 00 00 00 00 00 00 00 00 00 00
       0.0 0.0 0.0 0.0
000060 00 00 00 00 00 00 00 00 00 00 00 00 00 00 00 00
       0.0 0.0 0.0 0.0
000070 00 00 00 00 00 00 00 00 00 00 00 00 00 00 00 00
       0.0 0.0 0.0 0.0
000080 00 00 00 00 00 00 00 00 00 00 00 00 00 00 00 00
       0.0 0.0 0.0 0.0
000090 00 00 00 00 00 00 00 00 00 00 00 00 00 00 00 00
       0.0 0.0 0.0 0.0
0000a0 00 00 00 00 00 00 00 00 00 00 00 00 00 00 00 00
       0.0 0.0 0.0 0.0
0000b0 00 00 00 00 00 00 00 00 00 00 00 00 00 00 00 00
       0.0 0.0 0.0 0.0
0000c0 00 00 00 00 00 00 00 00 00 00 00 00 00 00 00 00
       0.0 0.0 0.0 0.0
0000d0 00 00 00 00 00 00 00 00 00 00 00 00 00 00 00 00
       0.0 0.0 0.0 0.0
0000e0 00 00 00 00 00 00 00 00 00 00 00 00 00 00 00 00
       0.0 0.0 0.0 0.0
0000f0 00 00 00 00 00 00 00 00 00 00 00 00 00 00 00 00
       0.0 0.0 0.0 0.0
000100 00 00 00 00 00 00 00 00 00 00 00 00 00 00 00 00
       0.0 0.0 0.0 0.0
000110 00 00 00 00 00 00 00 00 00 00 00 00 00 00 00 00
       0.0 0.0 0.0 0.0
000120 00 00 00 00 00 00 00 00 00 00 00 00 00 00 00 00
       0.0 0.0 0.0 0.0
000130 00 00 00 00 00 00 00 00 00 00 00 00 00 00 00 00
       0.0 0.0 0.0 0.0
000140 00 00 00 00 00 00 00 00 00 00 00 00 00 00 00 00
       0.0 0.0 0.0 0.0
000150 00 00 00 00 00 00 00 00 00 00 00 00 00 00 00 00
       0.0 0.0 0.0 0.0
000160 00 00 00 00 00 00 00 00 00 00 00 00 00 00 00 00
       0.0 0.0 0.0 0.0
000170 00 00 00 00 00 00 00 00 00 00 00 00 00 00 00 00
       0.0 0.0 0.0 0.0
000180 00 00 00 00 00 00 00 00 00 00 00 00 00 00 00 00
       0.0 0.0 0.0 0.0

mlp_extractor.policy_net.4.weight f4 [100, 100]
000000 99 87 c8 3c fe 9b 2c 3e b8 39 95 be b4 4e 26 be
       0.02447872 0.16856381 -0.29145598 -0.1624096
000010 b0 69 27 3e 1d 9d ad 3d ca d1 35 3e 80 4f 16 be
       0.1634891 0.084772326 0.1775581 -0.14678764
000020 41 56 82 be ee 3b ef bd 5a 3f 0e 3e 70 06 81 3c
       -0.25456432 -0.116813526 0.13891354 0.01575014
000030 8a 08 03 3e be ba a8 3d 78 b2 03 be c5 ec 57 bd
       0.12796226 0.08238743 -0.12861049 -0.052716035
000040 96 ec 2e bd 04 67 ad 3b bf 48 18 bd aa 11 bb 3c
       -0.042706095 0.0052918214 -0.03717875 0.022835571
000050 14 f9 e5 3d 70 20 0e be ac 11 25 bd 90 28 a9 bd
       0.112291485 -0.13879561 -0.040300056 -0.0825969
000060 94 a1 8a be d4 5a 58 be 24 fa f7 3d 14 8d db bd
       -0.270764 -0.21128398 0.121082574 -0.10720268
000070 8c 5d 18 be 51 1d e0 3d c1 73 44 bd 23 b6 9e bd
       -0.14879435 0.10943092 -0.047961954 -0.077495836
000080 f1 ad 38 be f4 f1 8c be 9c 7e 04 3e a6 cc a7 bb
       -0.18035103 -0.27528346 0.12938923 -0.0051208315
000090 a5 b8 a4 3c e9 1e 79 3e eb 97 e1 bd 01 de 01 bc
       0.020107577 0.24328198 -0.11015304 -0.007926465
0000a0 09 10 c3 3d 9e 5b 7a be ab 87 6b bd 53 1a cd 3d
       0.09524543 -0.24449012 -0.05750243 0.100147866
0000b0 b9 03 ff bc 44 a1 a6 3d 2c 61 c6 3d 6c 00 79 3d
       -0.031129705 0.08136228 0.09686503 0.060791418
0000c0 a1 f5 8c 3e 8f 56 23 3e f1 43 8e bd 18 03 67 be
       0.2753115 0.15950988 -0.069465525 -0.22559774
0000d0 51 1d 6f be df 45 01 3e b2 11 40 bd b9 5c ca 3d
       -0.23351027 0.1262431 -0.046891876 0.09880967
0000e0 a7 d1 a7 3c 6f 98 80 3d 64 8a 22 be 8c ee 06 be
       0.020485712 0.062790744 -0.15873104 -0.13176936
0000f0 e1 5a 12 3e 9d 43 08 be 21 ce d1 3d 98 04 8a bd
       0.1429248 -0.13307042 0.10244394 -0.067391574
000100 09 9b b0 be b5 62 23 bd 03 e1 23 bd 66 7f f2 bc
       -0.34493282 -0.039889056 -0.04000951 -0.029601764
000110 14 0f 9e bd c3 2a 8b bc d5 20 a9 3e bd 69 cb bd
       -0.0771772 -0.016988164 0.3303286 -0.09932277
000120 41 25 36 bd f1 43 c3 3b df 70 9f 3d dd 7b 05 3d
       -0.04446912 0.005959027 0.077852 0.03258883
000130 e6 dc f2 bd 7e ab aa bd 0b 46 e4 3d 4e 5c 4d bd
       -0.11858539 -0.08333491 0.11146172 -0.050136857
000140 b6 37 8e be 0d a0 f6 bd 35 2e 4e 3e f2 04 fd 3d
       -0.2777688 -0.12042246 0.20134814 0.12354459
000150 e5 83 99 3e d5 05 47 3d d4 b9 5a bd 86 49 c9 ba
       0.2998344 0.048589546 -0.053399876 -0.0015356995
000160 55 ed 97 3d 21 1d a7 bd 63 0a 93 bc 1a ae 38 3e
       0.07418314 -0.08159853 -0.017949289 0.18035164
000170 52 e8 c6 3d 24 2f 81 be 9b 7b 21 3c eb da 69 3d
       0.0971228 -0.25231278 0.00985613 0.057093542
000180 9a b1 00 3e bb d5 d2 3d 79 5b 06 bd f6 92 8e 3e
       0.1256775 0.10294672 -0.03280208 0.27846497
000190 fb 1c 22 be 94 59 03 3e 68 24 bd 3d a8 67 36 3e
       -0.15831368 0.1282714 0.092354596 0.17812979
0001a0 e6 cc 3f bd ab 66 93 3d ab df b9 bd 04 a1 17 be
       -0.046826266 0.07197317 -0.090758644 -0.14807516
0001b0 3d 3d 04 3e e5 d8 83 3d b5 af 40 3d 15 a0 1b be
       0.12913986 0.06437854 0.047042567 -0.15197785
0001c0 e3 b2 f1 3d cc d9 fb 3c 22 8a 36 3e f8 96 69 bd
       0.11801698 0.030743502 0.17826131 -0.05702874
0001d0 a9 31 09 3e a9 16 d9 3c 8e 14 9b bd c8 36 1e be
       0.1339785 0.026500063 -0.0757228 -0.15450585
0001e0 46 82 39 be 2c 80 42 3d 3c 79 b0 3e 11 11 40 be
       -0.18116102 0.047485515 0.34467494 -0.1875651
0001f0 61 fa b0 bd 22 69 4f 3e 78 d5 78 be b5 4f 31 3e
       -0.08641506 0.20254949 -0.24300182 0.17315562
000200 2e 20 00 3d 07 68 50 bd 20 94 26 3e 3e 32 4a bd
       0.03128069 -0.05088046 0.16267443 -0.04936432
000210 92 48 2c 3e 7c 9c 2f 3e 92 8b f4 3d 91 f2 18 bc
       0.16824558 0.17149538 0.119406834 -0.009335176
000220 77 e1 08 be 18 31 06 be 66 4e 1d 3e 8e e8 8a bd
       -0.13367258 -0.13104665 0.15361938 -0.067826375
000230 7c e5 0c 3e 8f 72 6c 3d 39 46 42 bd 43 15 af bc
       0.13759416 0.05772644 -0.04743025 -0.021372443
000240 11 12 9d be ed 30 d0 bd 03 2c 58 3e a4 cb 9c 3c
       -0.30677846 -0.10165582 0.21110539 0.019140072
000250 ce af f9 3c 64 7f d0 3d d1 27 be bd f0 b4 23 be
       0.030479338 0.10180548 -0.09284938 -0.15986991
000260 97 08 03 bd c5 3f 93 3d cb 04 b3 bc f4 22 a0 3c
       -0.031990614 0.071898974 -0.021852871 0.019547917
000270 cf ed 3d 3d 16 ee 3b be ae 85 e6 bc 60 a8 36 3e
       0.04636937 -0.18352541 -0.028139915 0.17837667
000280 18 e3 08 be 31 9a 58 3d 26 0e c7 3d d3 ac 27 be
       -0.1336788 0.052881423 0.097194955 -0.16374521
000290 17 5c bd bd 15 68 8a 3b 94 e2 a0 be 20 d5 5e be
       -0.0924608 0.0042238333 -0.31422865 -0.21760988
0002a0 64 77 66 3c 50 d0 09 bd 49 0e 4d 3e ee 35 6b bd
       0.014066551 -0.033645928 0.2002498 -0.05742448
0002b0 07 e0 21 3d ea 7e c6 bd f1 3a bb 3c 72 70 43 3d
       0.03952029 -0.09692176 0.022855254 0.047714658
0002c0 39 6d 46 3d 73 02 6e 3c 90 3f 34 be 14 a9 4f 3d
       0.048444007 0.014526951 -0.17602372 0.050698355
0002d0 c0 95 aa be d2 97 6e bd 2f 09 e1 bc e1 ab 1c 3e
       -0.33317375 -0.058250256 -0.0274702 0.15299942
0002e0 46 7d a7 bd ba 63 21 3e d5 c9 5b bd ea dc 7c 3e
       -0.08178191 0.15760699 -0.05365928 0.24693647
0002f0 d3 9a 66 3e 98 c0 37 3e a9 c0 e4 3d 09 d4 3a be
       0.22519998 0.17944562 0.111695595 -0.18244947
000300 e7 2f e4 3d 26 db cb 3d 71 4b d3 3d fe 89 23 3e
       0.11141949 0.099539086 0.10317124 0.15970609
000310 8b 95 2d be 15 94 c6 3e 2d 06 e2 bd 5b aa 2b 3e
       -0.16951577 0.38784853 -0.11036334 0.16764204
000320 cb cb 93 bd ec 80 8f 3e 41 6b 25 be 90 ab de bc
       -0.07216605 0.28028047 -0.16154195 -0.027181417
000330 23 06 cb bc 0d 5f 0b be 30 7a a1 bd 65 02 97 bd
       -0.0247832 -0.13610478 -0.078846335 -0.073735036
000340 e6 ea 36 be 6b 3a b2 3c 23 e3 65 3e 6f 60 be 3e
       -0.17863044 0.021756371 0.22449927 0.37182948
000350 f8 1d 31 3d 01 2c b1 3d 37 99 8f 3d 45 d3 f6 bd
       0.04324147 0.08650971 0.07011645 -0.12052015
000360 63 e1 44 3e 1e fc 46 3e 22 6f fb 3d a3 1f 62 be
       0.19226603 0.19432113 0.12277056 -0.22082381
000370 ce 9b 87 bd db f7 91 bd da b4 0a be e0 a4 44 3e
       -0.06621514 -0.07127353 -0.13545552 0.1920352
000380 ef 07 00 3e 61 ab 10 bd d8 7a 03 be 20 d9 5f bd
       0.12503026 -0.03531969 -0.1283983 -0.054650426
000390 96 3e fe bd 7f 2a 56 bd e4 ee fe bd 51 aa a4 3e
       -0.12414281 -0.05228662 -0.124479085 0.3216119
0003a0 a3 d8 44 3d cc 21 78 3d 6f 6a 96 be 0b a9 35 3e
       0.048058163 0.060579106 -0.29378077 0.17740266
0003b0 74 ef 6c bc a9 1a 23 3d e4 8e f0 3c 20 50 75 3e
       -0.014461387 0.039820347 0.02936501 0.23956347
0003c0 3d d8 7e be 22 5a 70 3e 98 1d 79 bd 04 10 3d 3d
       -0.24887176 0.23471883 -0.06081924 0.04615785
0003d0 97 07 44 3e f6 4b 3b 3c f4 fd b0 3e 35 27 bb bd
       0.1914352 0.011431685 0.3456875 -0.091383375
0003e0 1c e6 9a bd 17 f8 9f 39 39 47 25 3d e8 92 32 bd
       -0.07563421 0.00030511685 0.040351126 -0.043597132
0003f0 bc 15 40 bd d0 52 96 3d 1f c0 1c 3e c3 16 c3 bd
       -0.046895728 0.07340014 0.15307663 -0.09525826

mlp_extractor.policy_net.4.bias f4 [100]
000000 00 00 00 00 00 00 00 00 00 00 00 00 00 00 00 00
       0.0 0.0 0.0 0.0
000010 00 00 00 00 00 00 00 00 00 00 00 00 00 00 00 00
       0.0 0.0 0.0 0.0
000020 00 00 00 00 00 00 00 00 00 00 00 00 00 00 00 00
       0.0 0.0 0.0 0.0
000030 00 00 00 00 00 00 00 00 00 00 00 00 00 00 00 00
       0.0 0.0 0.0 0.0
000040 00 00 00 00 00 00 00 00 00 00 00 00 00 00 00 00
       0.0 0.0 0.0 0.0
000050 00 00 00 00 00 00 00 00 00 00 00 00 00 00 00 00
       0.0 0.0 0.0 0.0
000060 00 00 00 00 00 00 00 00 00 00 00 00 00 00 00 00
       0.0 0.0 0.0 0.0
000070 00 00 00 00 00 00 00 00 00 00 00 00 00 00 00 00
       0.0 0.0 0.0 0.0
000080 00 00 00 00 00 00 00 00 00 00 00 00 00 00 00 00
       0.0 0.0 0.0 0.0
000090 00 00 00 00 00 00 00 00 00 00 00 00 00 00 00 00
       0.0 0.0 0.0 0.0
0000a0 00 00 00 00 00 00 00 00 00 00 00 00 00 00 00 00
       0.0 0.0 0.0 0.0
0000b0 00 00 00 00 00 00 00 00 00 00 00 00 00 00 00 00
       0.0 0.0 0.0 0.0
0000c0 00 00 00 00 00 00 00 00 00 00 00 00 00 00 00 00
       0.0 0.0 0.0 0.0
0000d0 00 00 00 00 00 00 00 00 00 00 00 00 00 00 00 00
       0.0 0.0 0.0 0.0
0000e0 00 00 00 00 00 00 00 00 00 00 00 00 00 00 00 00
       0.0 0.0 0.0 0.0
0000f0 00 00 00 00 00 00 00 00 00 00 00 00 00 00 00 00
       0.0 0.0 0.0 0.0
000100 00 00 00 00 00 00 00 00 00 00 00 00 00 00 00 00
       0.0 0.0 0.0 0.0
000110 00 00 00 00 00 00 00 00 00 00 00 00 00 00 00 00
       0.0 0.0 0.0 0.0
000120 00 00 00 00 00 00 00 00 00 00 00 00 00 00 00 00
       0.0 0.0 0.0 0.0
000130 00 00 00 00 00 00 00 00 00 00 00 00 00 00 00 00
       0.0 0.0 0.0 0.0
000140 00 00 00 00 00 00 00 00 00 00 00 00 00 00 00 00
       0.0 0.0 0.0 0.0
000150 00 00 00 00 00 00 00 00 00 00 00 00 00 00 00 00
       0.0 0.0 0.0 0.0
000160 00 00 00 00 00 00 00 00 00 00 00 00 00 00 00 00
       0.0 0.0 0.0 0.0
000170 00 00 00 00 00 00 00 00 00 00 00 00 00 00 00 00
       0.0 0.0 0.0 0.0
000180 00 00 00 00 00 00 00 00 00 00 00 00 00 00 00 00
       0.0 0.0 0.0 0.0

mlp_extractor.value_net.0.weight f4 [100, 165]
000000 a9 ec a0 be fc f4 4f 3c 44 93 12 bc 1c 59 68 bc
       -0.31430557 0.012692686 -0.008946244 -0.014181402
000010 60 a3 de bd d8 c3 57 be 82 0e 31 be 23 9d 0f 3d
       -0.10871005 -0.21070802 -0.1729069 0.035061967
000020 72 6b ea bd 57 d9 10 be 0a 18 b2 bd ea 74 a2 bd
       -0.11446275 -0.14145409 -0.08695991 -0.07932456
000030 de c6 ed 3d b0 76 01 3e 8c 2f 07 3c bc 60 90 bc
       0.116101965 0.12642932 0.008251082 -0.017624252
000040 7c 4e fa bd fb 60 9a 3d bf 4b 56 bd eb 75 1b bd
       -0.12222001 0.07538029 -0.05231833 -0.037954252
000050 b8 e0 94 3d 11 d9 f7 3d 96 e6 b4 bd c5 50 9d 3e
       0.07269424 0.12101949 -0.08833043 0.30725685
000060 5d 33 72 bd b5 5a 27 bd 69 e9 91 3e 06 21 1d 3e
       -0.059131015 -0.04085799 0.2849839 0.15344629
000070 83 88 bd bd f1 1a bb 3d a5 dd b1 bb d4 1f a6 3d
       -0.09254553 0.09135998 -0.0054280334 0.081115395
000080 f1 98 b3 bd 99 e4 00 3e e4 c4 b9 3b 71 cd 3b 3b
       -0.08769406 0.12587203 0.005669223 0.0028656388
000090 72 6b 70 bd 1f 35 af bc 2f 4a ad 3d d8 18 a1 3d
       -0.058696218 -0.021387635 0.08461415 0.07866067
0000a0 f1 a3 d3 bd de 29 30 bb 2e 05 9a bd f6 38 bb 3c
       -0.10334004 -0.0026880424 -0.07520519 0.02285431
0000b0 fb ed 14 3d 48 63 0d be 2e db ed 3b c5 71 10 3e
       0.03635977 -0.13807404 0.0072587943 0.141059
0000c0 2e 87 95 3d 16 68 a4 3d 54 b7 37 3e fe f1 73 bd
       0.07301174 0.08027665 0.17941028 -0.059556954
0000d0 bb 0d 12 3d d6 d0 e1 3d 20 58 a6 bc ec 14 a3 bd
       0.035657626 0.110261604 -0.020305693 -0.07962975
0000e0 f4 1f d5 bc 89 32 5a 3e 29 6a 4d 3d dc 4e fb bd
       -0.026016213 0.2130834 0.05015007 -0.122709006
0000f0 3c 25 de bb b4 80 91 3d a2 98 af bc 61 7d d9 bd
       -0.006779341 0.07104626 -0.021435086 -0.10619617
000100 96 59 56 3d 2d b9 b2 bd 5f b6 1b be 18 d6 98 bd
       0.05233153 -0.08726726 -0.15206288 -0.0746271
000110 02 6f ff bc 7f 5a 48 be 92 63 04 be 0e a3 5d bd
       -0.031180862 -0.19565772 -0.12928608 -0.05411058
000120 02 43 20 3b 79 87 a3 3d bd 43 27 3d 8f 48 1e bd
       0.0024454002 0.07984824 0.040836085 -0.038643416
000130 03 5c bc 3c 73 7a 19 bd d0 05 09 ba ad c0 53 bd
       0.022993093 -0.037470292 -0.00052270014 -0.05169742
000140 33 fd c9 bd 3d ac 12 3c 1c 40 1e 3e aa 6e 38 3e
       -0.09862747 0.008952198 0.15454143 0.18010965
000150 75 2c eb 3d 84 9e d3 3d 64 12 1a bc 44 8b 03 be
       0.11483089 0.10332969 -0.009403799 -0.12846094
000160 16 ba 2b 3e eb c5 84 3d 2b b0 4b 3e 4b ba 46 3d
       0.16770205 0.06483062 0.19891421 0.048517507
000170 a4 b0 2f be 66 38 25 be 9b f3 e0 3d ec e1 06 be
       -0.17157227 -0.16134796 0.10983964 -0.1317212
000180 2f a7 6d 3d 2b d6 3c be a3 3d 88 3d c0 26 bd bd
       0.058020767 -0.18441074 0.06652381 -0.092359066
000190 43 99 64 be 6a 68 a8 3c d4 7b 15 be 4b fe 95 bd
       -0.2232409 0.020557601 -0.14598018 -0.07323893
0001a0 3b 48 02 3e de 5b 4a bb aa 2d 4c be e5 c3 74 bd
       0.12722866 -0.003087751 -0.19939294 -0.059757132
0001b0 b0 c9 f9 3b a4 42 9a bd de ed f0 3d 2c 99 b6 3d
       0.00762292 -0.07532242 0.117641196 0.08915934
0001c0 69 28 3c bd ab 20 16 bd 7b 9b cc 3d d7 0b fe 3d
       -0.045936976 -0.03665225 0.09990593 0.12404602
0001d0 38 d2 da 3d 86 8e 55 3e 1b 0b 92 3e f6 c8 f0 bd
       0.10684627 0.2085515 0.28524098 -0.1175708
0001e0 44 02 19 bc d6 63 8a 3e d4 31 57 3d 4c ab a8 3c
       -0.009338919 0.27029294 0.052537754 0.020589493
0001f0 1f 0b 24 3c 17 5b 4c 3b 71 14 89 bb d7 10 9e 3b
       0.010012417 0.0031182223 -0.004183345 0.004823785
000200 4b b9 7f 3b f8 d2 65 bd e1 18 81 3d de 56 2c bc
       0.0039020355 -0.0561094 0.063035734 -0.010518758
000210 53 91 c2 3d 37 de bb bc 2a 10 e4 3d 49 f6 9c bb
       0.09500375 -0.022933109 0.111358956 -0.0047901017
000220 78 22 95 bb 6e 0e 17 bd c2 ef f6 3a 2d f1 66 be
       -0.004551228 -0.036878996 0.0018839764 -0.22552939
000230 33 83 18 be cc 44 dd bd 51 49 0c 3c e6 55 fc 3d
       -0.14893799 -0.108041376 0.008562402 0.12321071
000240 c4 65 f9 3c d7 56 dd 3c 90 84 3d bd c6 2d 03 be
       0.030444033 0.027018948 -0.046269 -0.1281043
000250 db b9 94 be 8c 67 71 3d b7 cf 30 3c dc b8 9c 3d
       -0.29048046 0.05893664 0.010791711 0.07652447
000260 23 3b 9e bd da 09 f5 3c 7c 2c d2 bd 7a f6 20 3d
       -0.07726123 0.029911924 -0.10262391 0.03929756
000270 cb 01 ee bd 00 a0 89 bd 1e e7 ac 3b f5 45 96 3c
       -0.11621436 -0.06719971 0.0052765748 0.018343905
000280 76 5f 3a 3e 6a 54 c0 bc f8 54 4c 3e dc 1c 24 3d
       0.18200478 -0.023477752 0.19954288 0.040066585
000290 dc 98 97 3d f2 f4 a3 bc 48 f9 c1 3b 7d de 1a be
       0.074022025 -0.02001426 0.005919609 -0.15123935
0002a0 54 5b b4 bb bf 11 a4 3d 28 4a 53 3c a9 64 3c 3d
       -0.005504051 0.08011197 0.012896098 0.045994435
0002b0 a0 80 d8 3d 9d 59 85 3d 1e 92 95 3d a4 dc f4 3a
       0.10571408 0.06511233 0.0730326 0.0018681479
0002c0 fd 2e a4 3b f1 6b 24 3e 51 73 27 3e e0 b2 b7 3d
       0.0050104843 0.16056801 0.16352583 0.089696646
0002d0 2c 7f 95 bc 4c a3 e0 3d 37 a4 e0 bc b0 5d 11 3d
       -0.018249117 0.109686464 -0.027422054 0.035489738
0002e0 b9 8f 02 bd 48 8c 2b 3e 26 b0 1c 3c 90 40 2c 3c
       -0.031875346 0.16752732 0.009563481 0.01051344
0002f0 52 32 1e 3e 2c 38 97 bc c3 2a 0c 3e eb 14 bc 3d
       0.15448883 -0.018459402 0.13688187 0.09183677
000300 d9 a1 19 3d d0 70 fb bd 78 c8 1b bc 32 75 7a bd
       0.037507866 -0.12277377 -0.009508245 -0.061146922
000310 e4 85 1e 3d bd ea bf bc fd c2 d6 3c 0b c0 a7 bc
       0.038701907 -0.023427362 0.026216025 -0.020477315
000320 3e 9f 97 3e ec 97 97 bd 9c f0 0d 3e ef 6e 2c bd
       0.2961368 -0.07402024 0.13861316 -0.042097982
000330 f3 2d 0a ba 0f 71 6a 3e 72 05 75 3d 9c 00 79 be
       -0.0005271129 0.22894691 0.059819646 -0.24316639
000340 2b 49 8b be 53 30 8d 3e 00 87 c1 3d e0 97 80 3d
       -0.2720426 0.2757593 0.09449577 0.06278968
000350 a2 0a c3 3d 4d 2f 30 be 80 5b 30 be a0 90 ce bb
       0.095235124 -0.17205544 -0.17222404 -0.0063038617
000360 c0 8c 8a bc b6 98 b0 39 eb 0c 55 3b 0d be 12 be
       -0.016912818 0.00033683114 0.003250892 -0.14330311
000370 00 1b 12 be e5 00 47 be 21 7d 70 3c f3 89 3d bc
       -0.14268112 -0.19433935 0.014678271 -0.011568534
000380 9d 41 54 3e a3 eb 46 3e c1 8e fb 3d 9d 7b 31 3d
       0.20728154 0.19425826 0.122830875 0.043330777
000390 c7 51 2d be be a0 8a be 21 84 db 3d 11 c3 06 3e
       -0.16925727 -0.27075762 0.10718561 0.1316035
0003a0 eb 2c 04 be 05 a0 04 3c fc 98 21 3e dd 05 26 bd
       -0.1290776 0.008094792 0.15781015 -0.040532935
0003b0 9a 62 8c 3d 6d 64 cd bd 96 a0 7b 3d 35 75 da 3d
       0.06854744 -0.1002892 0.061432444 0.10666887
0003c0 64 ec 85 bc 71 89 20 3e 22 04 9f ba f1 28 60 bc
       -0.016348071 0.1567743 -0.0012131969 -0.013681636
0003d0 2b ba 51 3d 5c f3 a4 bd ea 85 ae bd 61 c8 1d 3d
       0.051202934 -0.080542296 -0.08521636 0.038521174
0003e0 e8 41 f5 bd 86 19 aa 3d 3b 1e 9b 3d a6 e5 c5 bd
       -0.11975461 0.083056495 0.075741254 -0.096629426
0003f0 5c 02 23 3e cb df f6 bc 3c 32 33 bb 78 e8 37 3e
       0.15918869 -0.03013601 -0.0027343174 0.17959774

mlp_extractor.value_net.0.bias f4 [100]
000000 00 00 00 00 00 00 00 00 00 00 00 00 00 00 00 00
       0.0 0.0 0.0 0.0
000010 00 00 00 00 00 00 00 00 00 00 00 00 00 00 00 00
       0.0 0.0 0.0 0.0
000020 00 00 00 00 00 00 00 00 00 00 00 00 00 00 00 00
       0.0 0.0 0.0 0.0
000030 00 00 00 00 00 00 00 00 00 00 00 00 00 00 00 00
       0.0 0.0 0.0 0.0
000040 00 00 00 00 00 00 00 00 00 00 00 00 00 00 00 00
       0.0 0.0 0.0 0.0
000050 00 00 00 00 00 00 00 00 00 00 00 00 00 00 00 00
       0.0 0.0 0.0 0.0
000060 00 00 00 00 00 00 00 00 00 00 00 00 00 00 00 00
       0.0 0.0 0.0 0.0
000070 00 00 00 00 00 00 00 00 00 00 00 00 00 00 00 00
       0.0 0.0 0.0 0.0
000080 00 00 00 00 00 00 00 00 00 00 00 00 00 00 00 00
       0.0 0.0 0.0 0.0
000090 00 00 00 00 00 00 00 00 00 00 00 00 00 00 00 00
       0.0 0.0 0.0 0.0
0000a0 00 00 00 00 00 00 00 00 00 00 00 00 00 00 00 00
       0.0 0.0 0.0 0.0
0000b0 00 00 00 00 00 00 00 00 00 00 00 00 00 00 00 00
       0.0 0.0 0.0 0.0
0000c0 00 00 00 00 00 00 00 00 00 00 00 00 00 00 00 00
       0.0 0.0 0.0 0.0
0000d0 00 00 00 00 00 00 00 00 00 00 00 00 00 00 00 00
       0.0 0.0 0.0 0.0
0000e0 00 00 00 00 00 00 00 00 00 00 00 00 00 00 00 00
       0.0 0.0 0.0 0.0
0000f0 00 00 00 00 00 00 00 00 00 00 00 00 00 00 00 00
       0.0 0.0 0.0 0.0
000100 00 00 00 00 00 00 00 00 00 00 00 00 00 00 00 00
       0.0 0.0 0.0 0.0
000110 00 00 00 00 00 00 00 00 00 00 00 00 00 00 00 00
       0.0 0.0 0.0 0.0
000120 00 00 00 00 00 00 00 00 00 00 00 00 00 00 00 00
       0.0 0.0 0.0 0.0
000130 00 00 00 00 00 00 00 00 00 00 00 00 00 00 00 00
       0.0 0.0 0.0 0.0
000140 00 00 00 00 00 00 00 00 00 00 00 00 00 00 00 00
       0.0 0.0 0.0 0.0
000150 00 00 00 00 00 00 00 00 00 00 00 00 00 00 00 00
       0.0 0.0 0.0 0.0
000160 00 00 00 00 00 00 00 00 00 00 00 00 00 00 00 00
       0.0 0.0 0.0 0.0
000170 00 00 00 00 00 00 00 00 00 00 00 00 00 00 00 00
       0.0 0.0 0.0 0.0
000180 00 00 00 00 00 00 00 00 00 00 00 00 00 00 00 00
       0.0 0.0 0.0 0.0

mlp_extractor.value_net.2.weight f4 [100, 100]
000000 1d 13 a0 be d7 bb ae 3b 49 bb e1 3d 33 c0 69 bc
       -0.31264582 0.005332451 0.1102205 -0.014267015
000010 3f 41 05 be 8e 5f 36 3d e7 9a a5 bd a0 aa 10 be
       -0.1301317 0.04452472 -0.08086186 -0.14127588
000020 48 33 30 3e 92 24 98 3e 8a eb ac bd 59 22 80 3e
       0.17207062 0.297154 -0.08443363 0.25026205
000030 5c 74 67 be ed 0f 2a 3d d7 27 23 3e 15 fa 20 be
       -0.22602981 0.041519094 0.15933166 -0.15720399
000040 64 68 47 3d fb 7d 34 be 5a e4 e3 bc aa 1e 2d be
       0.04868354 -0.17626183 -0.027818847 -0.16906229
000050 a9 c3 4c bd d4 e8 0e be 4b de 18 bb 3d 6b 17 3c
       -0.049991284 -0.13956004 -0.0023325856 0.009241876
000060 3c 9b 67 be 34 87 b8 3d 4f 83 66 3e 64 01 8f 3b
       -0.22617811 0.09010163 0.22511028 0.0043641794
000070 c1 37 01 3e 30 96 8b bd ca c3 b6 3d e2 0a d0 bd
       0.12618925 -0.06815755 0.089240626 -0.10158326
000080 45 52 68 be 3b d1 17 bd a8 b8 2b 3d d0 11 fe 3c
       -0.22687633 -0.037064772 0.04192415 0.031014353
000090 93 c5 f6 3d c9 6e 02 be f5 6b a7 3d a0 ce f5 3c
       0.12049403 -0.12737574 0.08174888 0.030005753
0000a0 b3 39 a2 bd 23 15 04 3a bd b7 b9 3e b8 9a 76 3e
       -0.079211615 0.000503855 0.36272994 0.24082458
0000b0 36 f9 1d 3e 92 24 2a 3e 82 41 05 3e a7 e2 41 bd
       0.15427098 0.16615513 0.1301327 -0.047335293
0000c0 33 f5 49 3d c8 dd b6 3d 72 98 82 3e d9 65 0c 3d
       0.049306106 0.0892902 0.25506932 0.034276817
0000d0 26 df d4 3d 5f 54 30 bd 1a e2 8e 3d c6 b5 32 3e
       0.10394125 -0.043049213 0.06976719 0.17452154
0000e0 7b cb 38 3d 7a af 44 bc c8 58 36 3e e7 02 a2 bd
       0.04511593 -0.0120047275 0.17807305 -0.0791071
0000f0 b9 4d 68 3d bb 8a db bd df a0 c4 bd 5f 72 1f be
       0.056714747 -0.1071982 -0.09600996 -0.15570973
000100 48 18 31 3d bf 14 81 3d 1f 8e 1c bd 40 84 3a 3e
       0.043236047 0.06302785 -0.038221475 0.18214512
000110 74 4b bb 3b 1e 88 0e 3e 6f 16 de 3c dd ff a9 be
       0.005715782 0.13919112 0.027110307 -0.3320302
000120 5a 3e ce bd 99 03 17 be f0 24 8b 3d 42 fa b4 bd
       -0.10070486 -0.14747466 0.06794155 -0.088367954
000130 f2 d5 99 bd 6e ea 67 3e 3f 04 68 bd 97 ee 24 3e
       -0.0751151 0.22648022 -0.056644674 0.1610664
000140 1b 70 be bc 2c 2e 0d bc 20 d0 85 3d 8c f3 5f 3e
       -0.023246815 -0.008616965 0.06533837 0.2187025
000150 1c 4e d3 bc 0f 8b c1 bb 88 c1 77 3e 35 b6 13 3e
       -0.025794081 -0.0059064697 0.2419492 0.14424975
000160 37 0d ac bd 81 64 c0 be 97 3a cb bd a9 83 ef 3d
       -0.08400958 -0.37576678 -0.099232845 0.11695034
000170 e1 f6 86 3d ef b1 87 3d f0 46 02 bd 5d df 62 3e
       0.06590057 0.06625735 -0.031805933 0.22155519
000180 c2 54 20 3e 69 95 26 3e f0 14 35 be 17 d7 ce bb
       0.15657333 0.16267933 -0.17683768 -0.006312262
000190 df d4 1d 3e 4c cf c1 bd a6 2d 0d 3e 4b 9d 94 3e
       0.15413235 -0.09463367 0.13786945 0.29026255
0001a0 f6 9e 87 3d e4 6c cf 3d a8 e1 8f 3d 4f 4d f9 3d
       0.06622116 0.10128191 0.070254624 0.121729486
0001b0 bc 1b a7 be 6b 1b 8a bd f8 ca 42 3b 32 df e6 bc
       -0.32638347 -0.06743511 0.002972303 -0.0281826
0001c0 42 d9 09 be 79 2c 9d 3d 2c 5e 27 bc 6e 79 86 bd
       -0.13461784 0.07674498 -0.010215323 -0.065661296
0001d0 a5 5e c2 3d dd a1 50 3d 88 19 c2 3d 28 c8 60 be
       0.09490708 0.050935615 0.09477526 -0.21951354
0001e0 96 8f 6d 3e 9a fe d6 3d 0b 4c 2d be a9 3f fc bd
       0.23199305 0.1049778 -0.1692354 -0.1231683
0001f0 85 64 af bd b5 5f b0 3d ff 1c 8b 3e c8 a9 47 bd
       -0.085640945 0.08612005 0.2717056 -0.0487459
000200 3e 50 3c 3d c5 6e 50 3d 02 df e8 bd 30 a5 15 bd
       0.045974962 0.050886888 -0.1137066 -0.03653449
000210 7f 6a ff bb 44 24 1c be 21 94 22 3d e6 25 8d be
       -0.0077946777 -0.15248209 0.039692048 -0.27567977
000220 58 28 97 3e 7a 58 1d be 06 43 fc 3d a0 b9 86 3d
       0.29522967 -0.15365782 0.12317471 0.06578374
000230 27 93 30 bd fb 65 33 3d f0 e4 cb 3c d3 d5 10 be
       -0.043109085 0.043798428 0.02488944 -0.14144067
000240 a1 8c 18 3e 1c 5d 9f bd a8 d2 36 be 7c 01 8c bd
       0.14897396 -0.07781431 -0.17853796 -0.068362206
000250 3c 0c 73 3d fd b6 e3 3d 6f 69 e9 bd b5 ce 27 bd
       0.05933784 0.111188866 -0.11397063 -0.040968616
000260 16 06 15 be c6 76 50 3e 46 2c d1 3d 71 c2 00 bd
       -0.14553103 0.20357808 0.102135226 -0.031435434
000270 c5 80 f4 be 6e 26 84 3e 48 33 c9 bd 1e 66 98 3d
       -0.47754493 0.2581057 -0.09824234 0.07441352
000280 82 6d ac bd fc 14 43 3d e1 2f 81 bc 76 fc 09 be
       -0.084193245 0.047627434 -0.0157699 -0.13475212
000290 09 3e 2c be 1c a3 ef bd d3 6c 9f 3b 29 36 4a 3b
       -0.1682054 -0.117010325 0.004865268 0.0030855036
0002a0 66 6e d5 be a5 bc a9 bd e2 62 b7 3d 1a 97 24 bd
       -0.4168579 -0.08287934 0.08954407 -0.040183164
0002b0 35 a3 a2 bd 63 12 9e bc 52 b9 2c bd 2e 6a 19 3d
       -0.079412855 -0.019295877 -0.042168923 0.037454776
0002c0 38 4d d2 3b 39 38 12 3e fa ea ce bd 76 b8 8b bd
       0.0064178966 0.1427926 -0.10103412 -0.068222925
0002d0 f1 ba cc 3c 0a 51 20 3d e4 fb 5d 3d 4d cf 59 be
       0.024991484 0.039139785 0.0541953 -0.21270485
0002e0 b4 6d 83 3d dc 25 53 3d ec 9e b7 3d 7f e1 07 3e
       0.064174086 0.051549777 0.08965859 0.13269614
0002f0 b6 c0 cd bd d7 84 25 be e1 8d 6a bd e1 cd 46 3e
       -0.10046522 -0.16163956 -0.057264213 0.19414474
000300 f5 67 aa ba b9 07 25 be 64 67 8b 3d cc 05 38 be
       -0.0013000952 -0.16116227 0.068068296 -0.17970961
000310 db cc 8c 3e f3 eb c3 bd f2 95 1d 3e 1d 4a 33 3e
       0.27500042 -0.09566488 0.15389231 0.1750874
000320 e3 d0 94 bd a3 7d 5f be 98 3e 84 3d 0a 9f 62 be
       -0.072664045 -0.2182527 0.06457251 -0.22130981
000330 bc 5a a8 be a3 4b d9 3d 5e 16 34 3c 60 cb 8f 3e
       -0.32881725 0.1061013 0.010991661 0.2808485
000340 d9 da 95 bd 6b 5f 94 3e 9b c8 bf bc 95 02 78 3e
       -0.073171325 0.28979048 -0.023411086 0.24219735
000350 58 00 63 be 1a d2 e7 bc a1 a7 e4 bd fb a1 ca bd
       -0.221681 -0.028298426 -0.11164785 -0.098941766
000360 a9 03 6d be a7 83 42 3e cd 7a 65 3c 64 2a f0 3d
       -0.23145927 0.18995534 0.014006329 0.11726835
000370 c2 07 d0 3d ad 52 88 bd cc c4 02 be ff 4c b9 3b
       0.1015773 -0.06656394 -0.12770385 0.0056549306
000380 12 43 49 3e e0 5d 2a 3e 4b 87 e6 3c 89 66 18 3e
       0.19654492 0.16637373 0.028140685 0.14882864
000390 f9 f4 ed 3c ec 5d b4 bd a4 24 d5 3d 59 be d4 3d
       0.029047476 -0.08806977 0.10407379 0.103878684
0003a0 82 79 88 3d 75 5c 48 3e 37 1d 26 be be 1b 4b 3e
       0.06663801 0.1956652 -0.16222082 0.19834802
0003b0 d4 03 09 bb 7d 82 94 3d fa b2 5e 3e b5 96 e4 3d
       -0.0020906823 0.07251451 0.21747962 0.111615576
0003c0 3d b5 41 3e 78 50 0c be 7f 8a c5 3d c0 aa 30 be
       0.18916793 -0.13702571 0.09645557 -0.17252636
0003d0 04 db a9 3d e2 60 2b be f4 ac c6 3d 3f 11 91 bc
       0.08293727 -0.16736177 0.09700957 -0.017708419
0003e0 c3 66 30 be 7a 5a b8 3d 49 d7 1e 3d e6 12 e5 bd
       -0.172267 0.09001632 0.03877953 -0.11185245
0003f0 d4 af 73 bc bc 4a 9a 3e 08 63 dd bd ac a2 a1 bd
       -0.014873464 0.30135143 -0.10809904 -0.07892355

mlp_extractor.value_net.2.bias f4 [100]
000000 00 00 00 00 00 00 00 00 00 00 00 00 00 00 00 00
       0.0 0.0 0.0 0.0
000010 00 00 00 00 00 00 00 00 00 00 00 00 00 00 00 00
       0.0 0.0 0.0 0.0
000020 00 00 00 00 00 00 00 00 00 00 00 00 00 00 00 00
       0.0 0.0 0.0 0.0
000030 00 00 00 00 00 00 00 00 00 00 00 00 00 00 00 00
       0.0 0.0 0.0 0.0
000040 00 00 00 00 00 00 00 00 00 00 00 00 00 00 00 00
       0.0 0.0 0.0 0.0
000050 00 00 00 00 00 00 00 00 00 00 00 00 00 00 00 00
       0.0 0.0 0.0 0.0
000060 00 00 00 00 00 00 00 00 00 00 00 00 00 00 00 00
       0.0 0.0 0.0 0.0
000070 00 00 00 00 00 00 00 00 00 00 00 00 00 00 00 00
       0.0 0.0 0.0 0.0
000080 00 00 00 00 00 00 00 00 00 00 00 00 00 00 00 00
       0.0 0.0 0.0 0.0
000090 00 00 00 00 00 00 00 00 00 00 00 00 00 00 00 00
       0.0 0.0 0.0 0.0
0000a0 00 00 00 00 00 00 00 00 00 00 00 00 00 00 00 00
       0.0 0.0 0.0 0.0
0000b0 00 00 00 00 00 00 00 00 00 00 00 00 00 00 00 00
       0.0 0.0 0.0 0.0
0000c0 00 00 00 00 00 00 00 00 00 00 00 00 00 00 00 00
       0.0 0.0 0.0 0.0
0000d0 00 00 00 00 00 00 00 00 00 00 00 00 00 00 00 00
       0.0 0.0 0.0 0.0
0000e0 00 00 00 00 00 00 00 00 00 00 00 00 00 00 00 00
       0.0 0.0 0.0 0.0
0000f0 00 00 00 00 00 00 00 00 00 00 00 00 00 00 00 00
       0.0 0.0 0.0 0.0
000100 00 00 00 00 00 00 00 00 00 00 00 00 00 00 00 00
       0.0 0.0 0.0 0.0
000110 00 00 00 00 00 00 00 00 00 00 00 00 00 00 00 00
       0.0 0.0 0.0 0.0
000120 00 00 00 00 00 00 00 00 00 00 00 00 00 00 00 00
       0.0 0.0 0.0 0.0
000130 00 00 00 00 00 00 00 00 00 00 00 00 00 00 00 00
       0.0 0.0 0.0 0.0
000140 00 00 00 00 00 00 00 00 00 00 00 00 00 00 00 00
       0.0 0.0 0.0 0.0
000150 00 00 00 00 00 00 00 00 00 00 00 00 00 00 00 00
       0.0 0.0 0.0 0.0
000160 00 00 00 00 00 00 00 00 00 00 00 00 00 00 00 00
       0.0 0.0 0.0 0.0
000170 00 00 00 00 00 00 00 00 00 00 00 00 00 00 00 00
       0.0 0.0 0.0 0.0
000180 00 00 00 00 00 00 00 00 00 00 00 00 00 00 00 00
       0.0 0.0 0.0 0.0
