DBC/Models/Networks/policy.pth (torch, 156350 bytes, 6 tensors)

fc1.weight f4 [128, 165]
000000 2a f4 89 bb df dc a8 3c e1 75 92 3d a3 4e b9 bd
       -0.004210015 0.020613132 0.0715139 -0.09048202
000010 d0 cc 86 ba 76 8b 76 3d a7 b4 17 bd 3a 64 8e 3d
       -0.0010284428 0.060191594 -0.037037518 0.069527104
000020 52 ff 88 3d e2 46 81 3d e9 9b 0f bd 42 5a 41 3d
       0.066893235 0.06312348 -0.035060797 0.047205217
000030 1d 1a df bb 02 1c 2c bc 5d 78 08 bd 12 04 9f bc
       -0.006808533 -0.010504724 -0.033317912 -0.01941112
000040 08 1b 4e bc 17 6d 8d bd c4 f9 2e bd d8 ee f1 bc
       -0.012579687 -0.06905573 -0.042718664 -0.029532835
000050 81 d6 a6 bb 09 4c 8f bd 21 55 6e 3b 14 b0 34 3e
       -0.005091489 -0.069969244 0.0036366659 0.17645293
000060 f9 b3 b0 3d 68 4f 9e 3d 6d f7 52 3d a3 10 e8 bd
       0.08628077 0.07729989 0.051505495 -0.11331298
000070 53 5a 2f bc b7 6e 87 3d 62 03 2a 3e 38 6a 2f 3c
       -0.010702687 0.06612914 0.16602853 0.010706477
000080 1d 55 a5 bc 33 4e e5 3b 4f 6b 18 3d 2d 2c 4c 3e
       -0.020182187 0.0069978475 0.037211712 0.19938727
000090 cf e5 18 bd cc f2 76 bc c7 14 20 3e 5d 36 c6 bc
       -0.037328538 -0.015072536 0.15632926 -0.024195844
0000a0 de 8b 8f 3c 19 35 5a 3b 6e 7d 84 bd 44 b2 31 3c
       0.017522749 0.0033295809 -0.06469236 0.0108457245
0000b0 0b a2 85 3c 6d 90 97 bd 2f 3a a5 bd 0a 30 62 3d
       0.01631262 -0.07400594 -0.08067738 0.055221595
0000c0 30 5f 88 3c b1 d8 1f bd 03 c8 85 bd 46 e9 d7 bc
       0.016646951 -0.039025012 -0.0653229 -0.02635635
0000d0 58 9a 9a bd 11 6d 9b bd 1e c9 17 3d 9e c2 63 be
       -0.0754897 -0.07589162 0.037057035 -0.2224221
0000e0 b1 55 42 bc d9 92 de bc 8c a3 49 be c5 11 1e 3d
       -0.011861251 -0.027169632 -0.19691294 0.038591165
0000f0 af 5f 44 be 25 8a bf bd 05 27 b9 bc 4d f3 4d be
       -0.19177125 -0.09352521 -0.022601614 -0.20112343
000100 43 b0 55 be f3 22 41 3d 47 5a a8 bd 7e bd 73 bc
       -0.2086802 0.04715247 -0.08220344 -0.014876721
000110 59 6a 9f 3c 8f 09 fc 3c 23 cc 30 bc 28 2a 40 39
       0.01945989 0.030766277 -0.0107908575 0.00018326251
000120 95 ab 0b 3b 59 6e f3 bd 7d 8b 81 bd 0a 8f 8e 3c
       0.0021311988 -0.118862815 -0.063254334 0.01740219
000130 aa 01 04 be 8f 2e cb 3c d1 12 04 be c8 ec 8d bc
       -0.1289126 0.024802474 -0.12897803 -0.01732482
000140 a9 5d e2 3b 8f 3c 4f 3d c9 25 f1 3c c7 42 16 bd
       0.006908138 0.050594863 0.029436963 -0.036684778
000150 2e 1f 0f bd 2d 1b ef bd 93 9a f3 bc 71 25 99 bc
       -0.034941845 -0.11675105 -0.029736793 -0.018694611
000160 dc d3 8b 3d a4 ee d8 bb f6 b4 00 be 01 79 04 3e
       0.06827518 -0.006620245 -0.12569031 0.12936784
000170 3b 88 c1 bd 4b 34 05 3e 84 cc b3 3c f3 d6 d7 3b
       -0.09449812 0.1300823 0.021948107 0.0065869032
000180 49 54 c2 3c 76 4e 08 3d 9d 80 11 3d e4 84 de bc
       0.02372183 0.03327795 0.035523046 -0.027162977
000190 75 73 67 bd 87 6d ca 3d f4 b5 2c bd 7f c4 8a 3d
       -0.056506593 0.09884172 -0.04216571 0.0677576
0001a0 56 08 a1 3d 07 61 40 bd 62 61 4b bd 2b a8 a7 bc
       0.07862918 -0.046967532 -0.04965342 -0.02046593
0001b0 d7 a1 61 3d 76 a3 28 3f b9 65 9e 3e 71 a5 9f bd
       0.055085983 0.6587442 0.30936983 -0.07795227
0001c0 6e e2 af be a5 7a 26 3e 8a 32 ae bd a4 0b 8c be
       -0.3435244 0.16257723 -0.08505733 -0.2735263
0001d0 e3 64 6b 3e 3a f7 c9 bc 97 81 be be 5a c9 d7 3e
       0.22987704 -0.02465402 -0.37208244 0.42145807
0001e0 13 83 93 bd bd bf 97 bd a0 a1 a4 3b d7 cd 02 be
       -0.07202735 -0.07409618 0.00502415 -0.12773834
0001f0 ca 92 62 3d f0 59 1b 3d af 4a 30 3c 37 1b 62 bd
       0.05531577 0.037927568 0.010759993 -0.055201735
000200 52 6b 3b 3e 9f 9b 98 bd b4 4c d0 bc 4f 96 84 3e
       0.18302658 -0.07451557 -0.0254272 0.25895926
000210 7a 8f bb 3c 83 6d 6b be a1 a4 93 3d 7a 8b 7e 3c
       0.022895563 -0.22990994 0.07209135 0.0155361835
000220 21 8f 9d bd 1b 1f 14 3f 81 27 66 bd 97 f7 84 3d
       -0.07693315 0.57859963 -0.056190018 0.064925365
000230 e0 f1 7d be 56 ca c9 3c 8a 3d 06 3e b5 b3 82 be
       -0.24799299 0.024632614 0.13109413 -0.2552773
000240 28 19 23 bd f6 b5 f4 be 92 d2 d1 bd d3 9f fc bc
       -0.039818913 -0.47795075 -0.10245241 -0.030837929
000250 3b d7 ba be a2 87 db bb 22 60 cc 3a 23 1b 85 bd
       -0.36492333 -0.0066995183 0.0015592615 -0.064993165
000260 99 fe a8 bc 5d ea ad bb eb 0b 62 bd 10 ab 1f 3e
       -0.020629214 -0.0053074793 -0.055187147 0.15592599
000270 c2 71 84 3d 4d 92 4c 3d 7d bc a6 3d 6b aa 25 bd
       0.0646701 0.04994421 0.0814142 -0.040445726
000280 3c 54 7c bd a9 74 17 bb ee 8c 9e 3e 7f 88 62 3e
       -0.06160377 -0.0023110306 0.30966896 0.22122382
000290 98 ec 17 3e db 76 96 3c d2 b0 00 3d dd 5a 60 bd
       0.14836347 0.018367222 0.03141863 -0.054774154
0002a0 85 5b 1c 3c 6d dc 8e 3b 33 a1 73 bc aa 88 bf bd
       0.009543304 0.004359773 -0.014869976 -0.093522385
0002b0 58 0a 3e bd a2 2a a0 3d 34 9b 62 b9 1a 91 43 bd
       -0.046396583 0.078206316 -0.00021610857 -0.0477458
0002c0 10 70 e0 bd 0c 1a 69 3d 3d f2 a1 bb f6 03 40 3d
       -0.10958874 0.056909606 -0.004942207 0.046878777
0002d0 e8 80 d3 bc 30 9b ae bd 1c 81 8a 3d 5d eb 38 bd
       -0.025818303 -0.085256934 0.06762907 -0.045146335
0002e0 dd 2d 49 bd f6 96 95 3c 6a c9 d2 bd 09 e4 ea bc
       -0.049116004 0.01826046 -0.10292323 -0.028673189
0002f0 c0 92 e2 bd ce e8 88 bd f5 0e b5 bc 08 1b 5a bd
       -0.110631466 -0.06685029 -0.022101859 -0.053248435
000300 98 0b fc 3c 8f ad c1 bc b0 29 97 bc 1b cb fe bd
       0.030767247 -0.02364233 -0.018452495 -0.12441083
000310 91 6d 30 bd 1a 14 33 3e 35 61 5d be 01 31 52 bd
       -0.04307324 0.17488137 -0.21619113 -0.051316265
000320 fb 2a f0 3d cd 80 2b be 58 5c bd bc 3f 80 78 be
       0.11726948 -0.16748352 -0.023115322 -0.24267672
000330 63 98 17 3d b2 d1 0d 3d b5 5d 49 3d 8a 1e d4 bc
       0.03701056 0.03462381 0.04916163 -0.025893468
000340 90 de 74 bd e0 26 af bd 3c 99 fe bd c3 80 b1 bd
       -0.059782565 -0.08552337 -0.12431571 -0.086671375
000350 a1 b9 a2 3d 9c 32 96 bd b1 8b 7e 3c c5 e4 59 bd
       0.07945562 -0.07333872 0.015536235 -0.053196687
000360 5a a2 a9 3d cc 29 2d be ab 5a c5 3d a9 a1 d3 bc
       0.08282919 -0.16910475 0.09636434 -0.025833922
000370 fc 27 95 be 1b 3d 77 3c de 6b 8d 3e 46 56 9b be
       -0.29132068 0.015090252 0.2762136 -0.3033926
000380 89 dd 9a bd ce c8 81 3e 32 74 c9 be a7 23 30 3c
       -0.07561786 0.25348514 -0.39346462 0.010750688
000390 9b 68 29 3e 33 05 98 be 24 5c c4 bc c2 15 8a 3d
       0.1654381 -0.29691467 -0.023969717 0.06742431
0003a0 d7 8f dc 3c d1 c3 d1 bd 9f c3 e7 bb 77 93 0b 3d
       0.026924057 -0.10242427 -0.0070728804 0.03407618
0003b0 86 93 c0 3c b0 a0 3f 3d 46 dd 81 be 47 98 62 3d
       0.023507845 0.046784103 -0.2536413 0.055321004
0003c0 75 bf 9c bd d8 97 9a be cc 9a f9 3c 1c eb 45 3e
       -0.07653705 -0.30193973 0.03046932 0.19327968
0003d0 4b 30 f1 bc 8f 2c 0d bd b6 f0 3e bd 03 1c 94 bd
       -0.029441973 -0.034466323 -0.04661628 -0.07231905
0003e0 11 d2 9d bd b2 69 a7 bd fc 3f d4 3e 39 12 4a bd
       -0.077060826 -0.08174457 0.41455066 -0.049333785
0003f0 df 96 e9 be 56 88 33 be 49 40 71 3d 8f 97 42 3f
       -0.45622918 -0.17532477 0.058899198 0.7601251

fc1.bias f4 [128]
000000 b0 ee a6 3c b4 8a 9d 3d 94 19 01 3d 8e 69 66 bd
       0.020377487 0.07692471 0.031518534 -0.05625301
000010 f4 86 07 bd e0 3b 2d bd e9 3b 3b 3d 4c a2 aa 3d
       -0.033087686 -0.04229343 0.04571143 0.08331737
000020 d5 1f 34 3c 7b 08 06 bb 5d 91 8d 3c 9a 02 4d bc
       0.0109939175 -0.0020451832 0.017281229 -0.012512827
000030 7c f0 4d bc cc 76 5b 3d bc 13 23 bd a8 43 01 bc
       -0.012569543 0.05358009 -0.039813742 -0.007889666
000040 9e 56 87 3d b3 68 05 bd 46 d0 73 b9 e6 3e ce 3b
       0.06608318 -0.032570552 -0.00023251874 0.006294119
000050 f4 ab 68 3d de 03 b4 bc cf 97 6f bc fa 88 c4 3d
       0.056804612 -0.0219745 -0.014623596 0.09596439
000060 b4 0f 9d bc f4 a1 9a bc 3a b8 38 3d e5 27 5f bd
       -0.019172527 -0.018876053 0.045097567 -0.054481406
000070 d1 e7 fb 3c 62 f1 35 3d 29 cc b9 bd 9a c9 82 3d
       0.030750187 0.044419654 -0.090721436 0.06386109
000080 42 cf 8b bc 37 3a 6d 3d 04 17 c0 3b 9a cd 6f 3d
       -0.017066602 0.057916846 0.0058621187 0.058545686
000090 70 2c 70 3d 3f 30 85 3d 09 3e 8b 3d c8 80 84 bc
       0.05863613 0.06503343 0.06798942 -0.016174689
0000a0 b4 db 65 3d 97 50 31 bd 69 22 f5 bc e5 6e d7 bc
       0.05611773 -0.043289747 -0.029923635 -0.026297996
0000b0 47 a0 ae bd 46 e9 2e 3d 51 5b 13 bd c5 54 92 3c
       -0.08526664 0.042702936 -0.035975758 0.017862687
0000c0 92 ce 98 bd 20 ae fd 3c 0b 98 49 3d 4c 7a ab bd
       -0.07461275 0.030966818 0.049217265 -0.08372936
0000d0 1f 12 2d 3d 89 1a 2c 3d 07 6f a0 bd 6a a1 ab bd
       0.04225361 0.042017493 -0.07833677 -0.08380397
0000e0 e2 5c a0 3c 50 86 27 3d 72 53 34 3d 35 80 14 bd
       0.01957554 0.040899575 0.044024892 -0.03625508
0000f0 fe 06 88 3d 04 a2 19 3d f0 6a f8 bc 7b 83 0c 3c
       0.06641959 0.037508026 -0.03032443 0.008576269
000100 86 0d 09 bd f6 cc 89 3d 01 d4 19 bd 74 49 88 3d
       -0.033460163 0.06728546 -0.0375557 0.06654635
000110 fe 57 86 3c b1 7b 3a 3d aa b3 67 3d 90 a9 95 3d
       0.01639938 0.045528118 0.056567825 0.07307732
000120 9a 59 4d 3d f1 fe 8d bd b9 04 45 3d 55 74 63 bd
       0.05013428 -0.06933392 0.048100207 -0.055530865
000130 78 9c 83 bd d6 46 86 3d 29 8a ff 3a e0 5d b7 bb
       -0.064263284 0.0655648 0.0019496131 -0.0055959076
000140 47 6c 07 3c d9 0f 5c 3d d2 8b 04 bd 61 17 61 bd
       0.008265561 0.05372605 -0.032359906 -0.054953936
000150 90 2e 3c 3d ac 01 53 3b ae 22 6f 3d c7 b0 56 3b
       0.045942843 0.0032197041 0.058382683 0.0032759176
000160 0e f9 16 3b 16 f8 6b 3d 65 89 a9 bd c6 71 c9 bc
       0.0023036632 0.05760964 -0.08278159 -0.024590384
000170 5d 64 d7 39 ad cd 3a bd 20 30 91 ba 16 66 c2 3c
       0.00041082772 -0.045606304 -0.0011076964 0.023730319
000180 04 0a fc 3c 6b e4 f5 bc 61 df a6 3b 86 38 03 3d
       0.030766495 -0.030016145 0.005092547 0.032036327
000190 f3 b1 88 bd 6d a4 4d bd 6f 59 92 bd 89 47 9e 3c
       -0.06674566 -0.050205637 -0.07145964 0.01932122
0001a0 8f 94 e2 bc e9 5d 40 3c 5e 0b af bc e7 7a 39 3d
       -0.027658729 0.01174114 -0.021367725 0.045283224
0001b0 93 da 4c bd 91 d3 2c bd 42 1b 7c bd 2d f0 55 3c
       -0.050013136 -0.042193953 -0.061549433 0.013057751
0001c0 2f 86 4b bc 76 1b 6c bd cc cd bb bc f2 35 b6 3c
       -0.012422129 -0.057643376 -0.02292528 0.02224252
0001d0 9d 28 e6 3c 21 88 7e bc 21 df 28 bd a1 01 04 3d
       0.028095538 -0.015535385 -0.041228417 0.032228116
0001e0 f4 cc 5e 3d 71 0b 8f bc 94 6a 6d 3c a3 3e a6 bd
       0.054394677 -0.01746151 0.014490742 -0.08117416
0001f0 d2 a7 21 3d 9a 4d 53 3d 8b e2 8c bb 67 e0 21 3d
       0.039466687 0.05158768 -0.004299467 0.039520647

fc2.weight f4 [128, 128]
000000 46 1a 10 3b a7 d3 80 bd a6 11 8d 3d 1d 9a 64 bd
       0.0021988316 -0.062903695 0.06888132 -0.055811036
000010 47 a7 c5 3c 0e c9 c3 bc 6e b7 d1 bc 6d e8 6b bd
       0.024127616 -0.023899581 -0.025600161 -0.057594705
000020 b2 9b 8b bc b1 27 c0 bd f7 34 33 bd 8b e6 83 3d
       -0.017042015 -0.093825705 -0.043751683 0.06440457
000030 e8 f0 c3 bd 9a c6 77 3d c8 9d 40 bc ee d6 b7 3c
       -0.095674336 0.060492136 -0.011756368 0.022441354
000040 4d b6 a3 3d 3f 67 c0 bd 61 9d 52 bd 8a 6b a9 bd
       0.079937555 -0.09394693 -0.05141962 -0.082724646
000050 22 bc c2 bb da a3 d6 39 12 8b bc 3c a2 b2 05 bd
       -0.0059428373 0.0004093934 0.023015533 -0.03264106
000060 66 d1 44 3a 16 fc 09 bc 2d 39 44 bc 28 4e 3f 3a
       0.00075080094 -0.008421918 -0.011976522 0.0007297718
000070 9d 5e 82 ba 6a 51 9c bd 5d 6a a7 3c 1d 38 4b 3d
       -0.000994641 -0.07632716 0.02043646 0.04961406
000080 2f d3 23 3d 1a 6d 86 3d c1 6f 9a 3a 54 c0 88 bd
       0.039996322 0.06563778 0.0011782573 -0.06677309
000090 c3 5b b5 bb f0 7f 25 bc 0f d8 6a ba c0 f3 0a 3d
       -0.0055346205 -0.010101303 -0.0008958587 0.033923864
0000a0 ae c0 8f 3d 3c 67 d0 bb 5e 9b 8e bd d8 b8 21 3d
       0.070191726 -0.0063599627 -0.06963228 0.03948292
0000b0 87 01 30 bd f2 94 6d bd 32 47 c2 bc f1 19 20 3c
       -0.042970207 -0.058003373 -0.02371559 0.00977181
0000c0 4e 67 3d bd b3 74 68 bd 8d 37 9f 3d eb c3 8f bc
       -0.046241097 -0.056751918 0.07774267 -0.017549476
0000d0 ea b7 8b bd 9b 1d e0 bc 0f fc f5 3b 58 88 de bd
       -0.06822188 -0.027357867 0.0075068544 -0.10865849
0000e0 a9 33 ce bd 53 f2 38 3d e5 8d e6 bc da 04 02 bd
       -0.10068447 0.045152973 -0.028143832 -0.031742908
0000f0 83 1d ba bd 08 21 82 3d 91 88 a3 3d 8c 25 0a 3c
       -0.0908766 0.063539565 0.07985032 0.008431803
000100 42 cc a1 bc de ba 06 3d 97 b8 fe 3c b3 f5 8f bb
       -0.019750718 0.032893054 0.031093879 -0.0043933033
000110 3c 34 fe bc c9 6a ca bb 07 e1 07 3d bf 8a 8f bb
       -0.031030767 -0.0061772806 0.033173587 -0.0043805535
000120 8b 87 85 bd f7 d7 4a bd e1 b1 51 3c bb 06 0f 3d
       -0.065199934 -0.049522366 0.012798757 0.034918528
000130 32 2f a0 3d 12 ce 1f 3c 63 f9 89 bc d5 64 dd 3b
       0.07821502 0.009753721 -0.01684255 0.006756405
000140 70 0e 46 bd d1 aa da 39 65 20 bd bd c8 f2 25 bc
       -0.048353612 0.00041707468 -0.092346944 -0.010128684
000150 66 6a 8c bd c1 45 a6 3a 29 39 bb 3c 45 8d 98 bd
       -0.068562314 0.0012685583 0.022854405 -0.0744882
000160 e2 b2 44 3c a0 0c aa bd 25 44 83 bd 63 42 12 bd
       0.01200554 -0.08303189 -0.06409482 -0.035707843
000170 92 a1 98 3c a0 cd 15 bd f9 d2 0f bd f4 e2 0e bd
       0.01863173 -0.036573052 -0.03511331 -0.034884408
000180 67 d9 35 bd 6e 99 e1 3c c4 19 9d bb ee fd 0d bc
       -0.044396784 0.027538981 -0.0047943313 -0.008666499
000190 9e 8a 04 3d 9d 78 bc bc 97 04 90 bc 42 94 c4 3b
       0.03235876 -0.023006732 -0.017580314 0.005999119
0001a0 6f 9a 91 3c 00 2c 44 3c 60 ef de 3c 14 55 14 3d
       0.017773835 0.011973381 0.027213752 0.03621395
0001b0 fe 84 51 bd 35 12 e8 bd b7 02 ab bd 58 2e 98 3c
       -0.05115222 -0.11331598 -0.08350127 0.018576786
0001c0 f9 7c 6c bd 43 76 ac 3d 1b 5d 48 bd d2 80 75 bd
       -0.05773637 0.08420994 -0.048916917 -0.059937306
0001d0 42 79 a2 3c 59 cf 86 3d 89 3c 8f bc bb b1 5f 3d
       0.01983321 0.06582517 -0.01748492 0.054612856
0001e0 d0 77 bd bd 37 11 54 bd 09 f3 3b bd dd 7e b1 bd
       -0.09251368 -0.05177423 -0.045886073 -0.086667754
0001f0 07 ed 72 3d a1 7d 6a bd fc a2 81 bb 6b 55 b9 bc
       0.05930808 -0.057248715 -0.003956197 -0.022623738
000200 61 76 c5 3d 62 e2 41 bd f4 51 bf bd 27 42 6a 3d
       0.096417196 -0.047335036 -0.09341803 0.057191994
000210 12 0b 78 bb fc ca 11 bd e6 5b 27 be f3 2b 85 bd
       -0.0037848395 -0.03559397 -0.1634365 -0.06502523
000220 31 93 4a 3c 2f 0c 7e 3d 4a 70 9a 3d ae 83 83 bd
       0.012364195 0.062023338 0.07540949 -0.064216
000230 02 0c 98 3d ec 90 dd 3d 30 9e 94 bd 39 b3 39 be
       0.07424165 0.10818657 -0.07256734 -0.18134774
000240 a3 d7 83 3d 45 ad 02 3e 73 b8 9e 3d 3b fc c2 bd
       0.06437614 0.1276141 0.07750025 -0.095207654
000250 e6 60 8a 3d 89 ff 8a bd 54 1e ba 3d 0d d4 7b 3d
       0.06756763 -0.06787021 0.09087816 0.061481524
000260 5b fd bd bd 1b fe bd bd ad fa a2 bd 29 cb e7 bd
       -0.09276839 -0.092769824 -0.07957969 -0.113180466
000270 59 d8 8e bd d8 01 ba bd c3 38 ec bc b9 d9 4a 3d
       -0.06974859 -0.09082383 -0.02883566 0.049524043
000280 ec 4f cc bd 67 1b 9b 3c 64 ec b2 bd 9f ed bc 3d
       -0.099761814 0.018933965 -0.08736494 0.0922501
000290 36 8c c4 3c 38 24 6a 3d ae 12 43 be 94 2e 4e b9
       0.023992639 0.057163447 -0.19050094 -0.00019663043
0002a0 37 72 85 3d 9e fc 57 3d 72 a4 ae bd 59 d5 2e 3e
       0.065159254 0.05273115 -0.08527459 0.17073573
0002b0 db 11 86 3d a3 26 ae bd 6b ad ae 3d 28 fb 84 bc
       0.065463744 -0.08503463 0.085291706 -0.016233042
0002c0 ce b5 9f 3c 7a 63 ce 3a b5 de 55 3c fd c3 e3 bd
       0.01949587 0.0015746199 0.013053586 -0.11121366
0002d0 0b ac 75 3e f9 a2 6c 3d af ba 61 bd 34 5e af 3c
       0.2399141 0.05777261 -0.055109676 0.021407224
0002e0 9a d2 e5 bd f9 0b 07 3d 05 86 ad bd d2 fa 1e bd
       -0.1122181 0.032970402 -0.08472828 -0.03881342
0002f0 95 36 85 3d 61 8e 8f be 61 b1 98 ba 2b 43 8f 3d
       0.06504551 -0.28038314 -0.0011649543 0.06995233
000300 b2 b5 d2 3e 9f 87 83 3d e6 cb 50 3d ea b3 70 bd
       0.41154248 0.06422352 0.050975703 -0.05876533
000310 69 6c 27 bc c1 57 85 bd 22 8c 8f bc 0c be be bc
       -0.010218718 -0.06510878 -0.017522875 -0.02328398
000320 8d a0 d2 bd 1c 3b 0d bd c1 6c 73 bd 20 20 fe 3c
       -0.10284529 -0.0344802 -0.059429888 0.031021178
000330 0f b0 2f 3e 39 03 06 bf 99 d5 81 3d a0 90 98 bd
       0.17157005 -0.5234867 0.06339569 -0.0744946
000340 51 8b 5c 3e 04 f4 a3 bc 95 38 76 3e fb 8f 53 bb
       0.2153752 -0.020013817 0.24045022 -0.0032281864
000350 1d d3 93 3c 59 22 91 3d 94 57 9d 3d 46 05 cc bd
       0.018045003 0.070866294 0.0768272 -0.09961943
000360 95 45 65 3c 17 3f 98 bd 22 37 5f bd bb e0 b2 bd
       0.01399364 -0.074339084 -0.054495938 -0.0873427
000370 d6 b5 dd bc 16 83 ce 3c 1a 6d a9 bd f8 3a 19 3d
       -0.027064245 0.025208991 -0.082727626 0.037409753
000380 0e 26 91 3e 5d 8f 2b 3d 86 ff d2 bd ae dd a3 bd
       0.28349346 0.04188477 -0.103026435 -0.080012664
000390 4a 73 e5 3d d5 8b 0f bd 34 f7 a3 be cc 75 9b bd
       0.1120363 -0.035045464 -0.3202454 -0.07590827
0003a0 aa 53 a5 3b bd 20 06 be b1 60 72 be ac 70 98 bc
       0.005045374 -0.13098426 -0.23669697 -0.018608414
0003b0 f4 55 8e 3d a3 29 7f 3e eb 0d 83 3c 09 f7 d0 bd
       0.06949988 0.24918227 0.015997848 -0.10203368
0003c0 6f d0 c2 3d ed 42 6f bd 47 c0 59 3e 81 fb d2 bc
       0.09512412 -0.058413435 0.21264754 -0.025754692
0003d0 0b 7b 68 3c ec 3f 34 be 3f 85 52 bd d8 a0 c2 ba
       0.014189492 -0.1760251 -0.051396605 -0.001484896
0003e0 4f e7 f1 be 73 08 96 3d 88 1c 1d bd 6a 80 5f 3d
       -0.47246787 0.0732583 -0.038357288 0.054565825
0003f0 ab a4 2e be 3d 34 c9 bd f7 60 8a 3d bc 7e 8f 3d
       -0.17055003 -0.09824417 0.06756776 0.070065945

fc2.bias f4 [128]
000000 19 38 83 bd b3 10 d6 3c 0f 10 99 3d 25 9c 96 bc
       -0.06407184 0.02613101 0.07473766 -0.018385002
000010 ca fc b8 3c 57 cb 48 bd ef d1 d2 3c 4c 58 fe bd
       0.022581477 -0.049022045 0.02573487 -0.12419185
000020 64 d6 6d bd fe 65 2c 3d 85 be 7a 3d 8f e2 25 bd
       -0.058065787 0.042089455 0.06121685 -0.040499266
000030 46 65 3b 3c 59 bf b5 3c 00 67 67 bd cd b5 0c bd
       0.01143772 0.022185968 -0.056494713 -0.034353066
000040 9c 62 c5 3d 02 11 03 3d 4a 64 be bd 4d b4 b7 3b
       0.09637949 0.03199864 -0.09296472 0.0056062103
000050 67 75 b6 bc 31 26 8b bb f1 70 78 3c 67 0c fe bc
       -0.022272779 -0.004246496 0.015163646 -0.031011773
000060 c2 f4 14 bd ba 81 43 3c 92 09 15 3c 4d 9e 8c 3d
       -0.03636623 0.011932785 0.00909652 0.06866131
000070 23 d7 8b 3d 7b 73 72 bd 89 a7 0d 3d b0 aa 14 bd
       0.068281434 -0.059192162 0.034583602 -0.036295593
000080 48 4b 1e 3d e8 e2 6d 3d ef e6 79 3c d7 83 63 3c
       0.038646013 0.058077723 0.015252813 0.013886414
000090 4d 44 14 bc 08 c2 7a 3d f2 bc 67 bd 70 d5 ad bd
       -0.009049487 0.0612202 -0.056576677 -0.084879756
0000a0 65 1d 78 bc ef 36 c5 3c 1a 75 b9 3c 65 3b a4 3d
       -0.015143727 0.024074046 0.022638846 0.08019141
0000b0 de cb c3 3c b1 91 87 3d 85 c0 a4 bd 42 dc 17 3d
       0.023900922 0.06619585 -0.08044533 0.03707529
0000c0 f1 d4 cc bd ed 40 9a 3c b3 12 6c 3c 08 07 c5 bb
       -0.10001553 0.018829787 0.014408755 -0.006012801
0000d0 fe e1 44 bd f5 83 b8 bc e9 0c 0a 3d 8e b8 d3 bd
       -0.048067085 -0.02252386 0.03370372 -0.103379354
0000e0 01 f4 50 bc 45 75 3f bd b3 08 c4 3c 58 97 f9 bd
       -0.012753488 -0.046742696 0.02392993 -0.1218707
0000f0 2a 11 a2 bb 22 71 a1 3d b8 1e 8b bd 82 0f 3a bd
       -0.004945894 0.078829065 -0.067929685 -0.045424946
000100 a8 19 f6 bd ad 7c 8b 3d 58 b3 53 3d 71 d4 0f 3d
       -0.12016612 0.068108894 0.051684707 0.03511471
000110 e7 6b dc bc c1 f6 77 3d 89 a0 f0 3c 2c 0c 89 bd
       -0.02690692 0.060538057 0.029373424 -0.06691775
000120 75 ec 3e bd f4 12 5a 3c bd ae 9e 3c d1 f7 4b 3d
       -0.04661222 0.013310183 0.019370431 0.049796883
000130 2e f0 cd 3d 7f df e3 bd 4c ee 12 3d af 5a a0 3c
       0.10055576 -0.11126613 0.03587179 0.019574491
000140 29 01 35 bd 08 29 88 bd 19 10 9a 3d 86 cf 5c 3d
       -0.04419056 -0.06648451 0.07522602 0.053908847
000150 5c af 12 bd 56 6a a1 3d a4 81 9d 3c a6 83 53 3c
       -0.035811767 0.0788161 0.019226857 0.012909805
000160 d1 8c 05 3c b6 cc be bd f4 21 72 3d c2 6a 85 3d
       0.008151249 -0.09316389 0.05911441 0.06514503
000170 fa 00 4e 3c 1f b6 2b 3d b4 de ca 3b b3 0f 53 bd
       0.012573475 0.04192173 0.006191099 -0.051528644
000180 0f 04 8f bc e7 05 a2 3d 85 5b 93 3c 28 4f 58 bd
       -0.01745799 0.07911282 0.017987976 -0.052809864
000190 3a dd 8e bd 66 e3 8a bc f4 bf 0d 3e e9 c4 54 bb
       -0.06975789 -0.016954135 0.13842756 -0.0032466
0001a0 33 d2 e8 bd ba d0 96 3d 83 10 ce bd 5a 8b b9 bd
       -0.11368217 0.0736403 -0.10061743 -0.09059782
0001b0 ee 40 a6 bc cd f4 bf 3d 48 9c 07 bd 83 fc 09 3e
       -0.020294633 0.09372864 -0.033108026 0.13475232
0001c0 bf 34 bf bc 60 4e 2f 3d 2e ca ef 3c a7 94 1f 3d
       -0.023340581 0.042799354 0.029271211 0.038960125
0001d0 67 2e 11 3d 09 2c b2 bc 1b 22 fa 3c 8c 44 e7 bb
       0.035444643 -0.021749513 0.03053384 -0.007057732
0001e0 cc 6f f3 bc 09 02 d5 3d d3 0c 0b bc 8e 8a 82 3d
       -0.029716395 0.10400779 -0.008486944 0.063740835
0001f0 d6 fc f3 3d a8 14 81 bd 31 e8 ca 3c 00 f6 15 bc
       0.11913459 -0.06302768 0.02476892 -0.009152889

fc3.weight f4 [6, 128]
000000 33 c7 bb bd d8 d8 52 3d 00 e4 1b bd 54 6d b0 bd
       -0.091688536 0.05147633 -0.038059235 -0.08614603
000010 ba 0c 34 bd 41 53 56 bd 13 e5 f8 bc 18 e6 8f bd
       -0.04395745 -0.05232549 -0.030382669 -0.07026309
000020 99 0f c3 bd e1 b8 fd 3c 94 5a 76 be 51 96 93 3c
       -0.095244594 0.030971946 -0.2405799 0.018016012
000030 2e 39 3c be d1 34 86 bd c6 a0 a0 3d 6e 33 42 3e
       -0.18381187 -0.06553043 0.07843165 0.18964931
000040 bd 83 e3 3d 6a d9 19 be bc da 47 3d c4 91 01 3f
       0.111091115 -0.15024343 0.048792586 0.50613046
000050 39 6b 6e 3e 26 32 33 3d 4f d2 4f be f2 e2 53 bd
       0.2328309 0.043748997 -0.2029507 -0.051730104
000060 8d 73 4b 3e 28 6b 49 3d 3a 74 70 be e6 7d d3 bd
       0.19868298 0.049174458 -0.23481837 -0.103267476
000070 c2 a5 18 bd f1 41 8e 3e 62 85 a1 bd 6c 00 cf 3c
       -0.037267454 0.27784684 -0.07886769 0.025268756
000080 50 69 88 3c 60 6c a3 3d 73 57 aa bd 31 3d a0 bc
       0.01665178 0.07979655 -0.08317461 -0.019560428
000090 ac 60 e1 bd 32 c3 1f 3d 92 fb 9d bd ab 92 7e bb
       -0.11004767 0.039004512 -0.07713999 -0.0038844745
0000a0 65 30 fa 3e 10 c7 5f bc 5f 3a c6 3c 06 27 0f 3d
       0.48865047 -0.0136583 0.024197755 0.034949325
0000b0 ca 0f 8e 3c 44 5b 1e bd ea ff 6d 3c 76 cd aa 3b
       0.017341513 -0.038661256 0.014526347 0.005212481
0000c0 63 7f 92 be c0 7b c8 3b e5 e9 37 3c d2 69 35 bd
       -0.28612813 0.006118268 0.011225198 -0.04429037
0000d0 a9 22 49 3e 6d f0 52 bc da 2b 98 be e3 c5 c1 3c
       0.19642128 -0.012874705 -0.29720956 0.02365393
0000e0 e7 6f f8 3e 2b f1 2b be f6 71 99 3d 25 1b c6 be
       0.48522875 -0.16791217 0.074924394 -0.38692585
0000f0 6f d0 50 3d 05 4f 2f bc ce c3 4c 3b 6f fe 28 bd
       0.050980028 -0.010699992 0.0031244638 -0.04125827
000100 58 52 9c be 09 42 a6 3c a6 29 48 bc a5 97 83 bd
       -0.30531573 0.02029516 -0.012216961 -0.06425408
000110 fb 65 a7 be 3d 5d 20 be 45 e9 d7 bd e6 af ef 3b
       -0.32694992 -0.15660568 -0.105425395 0.00731467
000120 59 22 e4 bc 55 b3 b5 3d e9 d4 3d 3c 81 69 02 bd
       -0.02784841 0.088720955 0.011586406 -0.031838898
000130 63 75 da bd ae 0f 80 3e a9 40 9c 3c 17 79 fa bd
       -0.10666921 0.25011963 0.019073801 -0.12230127
000140 f2 3f f5 bc 19 70 74 3d 24 df 2b bc c5 1e 3d 3e
       -0.029937718 0.059677217 -0.010490213 0.18468769
000150 17 88 5c 3c 99 30 18 be b3 18 7f 3d 0b 02 fb 3e
       0.013460181 -0.14862289 0.062279414 0.49024996
000160 ac 0d 55 bc bb 94 69 3d 31 62 b3 3d 0c b9 11 be
       -0.013003748 0.057026606 0.08758963 -0.14230746
000170 cd 79 9d bd 49 f8 13 3e 51 fa 79 bd 74 bf 62 3d
       -0.07689247 0.14450182 -0.061029736 0.055358365
000180 bc 4b b1 3d 04 aa 02 be 14 28 26 3e 8b 00 71 3d
       0.08657023 -0.12760168 0.16226226 0.05883841
000190 4c bd 09 be 4d 1d ab bd c8 66 17 be 8c b6 c5 3d
       -0.13451117 -0.08355198 -0.14785302 0.09653959
0001a0 e0 65 95 bd cf e2 9e bd 56 6b a6 bd 9f f1 43 be
       -0.07294822 -0.07758104 -0.081259415 -0.1913514
0001b0 2e de 26 3e 84 24 3b 3a b9 6a 46 3d 19 5b 85 bd
       0.16295692 0.0007138925 0.048441622 -0.06511516
0001c0 55 20 ba 3e 54 e1 6f 3d d0 6b 4e bd 71 70 3d 3b
       0.36352792 0.0585645 -0.050395787 0.0028906132
0001d0 66 8e 1d be 09 8f 1b 3e a3 0d 93 3d 3f e7 af 3d
       -0.15386352 0.15191282 0.071803354 0.085890286
0001e0 f7 af 85 3e cd 0c c0 bd 00 52 92 3c 7d e0 43 bd
       0.26110813 -0.093774416 0.017861366 -0.04782151
0001f0 58 c2 50 3e 13 88 3a be 4c 18 a5 3e e0 4d dc bc
       0.20386636 -0.1821597 0.322451 -0.026892602
000200 d0 38 8a bd 52 58 ed bd 0c 25 16 bc 17 16 a7 bc
       -0.067491174 -0.115891114 -0.009164106 -0.020396275
000210 1b 8c 47 3d cf b3 08 3d ac 03 be bd a1 29 0a be
       0.0487176 0.033374604 -0.09278044 -0.13492443
000220 76 a7 26 bd e0 bb cb 3c c3 5b 08 bf 43 05 58 bd
       -0.040687047 0.02486986 -0.5326502 -0.052739393
000230 f2 3b 2e be c4 72 05 3d 45 b4 3f be 16 b5 88 3e
       -0.17015055 0.032580152 -0.18721111 0.26700658
000240 2b b5 e4 3c 64 f2 87 bb 8e 51 0f bd 97 44 82 3e
       0.027918419 -0.0041487683 -0.034989886 0.25442955
000250 90 21 ae 3e fb 6e d7 bd cb 0c 71 3e 4a 76 3f 3d
       0.3400998 -0.10519215 0.23540036 0.04674367
000260 b1 ed 74 3e 1c da e2 bd 66 62 2f 3c 40 b0 9e bd
       0.23918797 -0.11076757 0.010704612 -0.07748461
000270 48 ae 10 be d7 bc 96 3e 35 a3 c8 3c be be dc b8
       -0.14128983 0.29440948 0.024491886 -0.00010525946
000280 af 04 e5 3d fb 20 ce 3c d4 73 ea be 66 54 7a bd
       0.11182534 0.02516221 -0.45791495 -0.061115645
000290 3f db 54 3e 02 3b 96 bd be d1 ed bc 13 6d 2c 3b
       0.20786761 -0.073354736 -0.029030677 0.002631013
0002a0 c3 f3 e2 3e 58 64 46 3e 74 06 48 bd 10 95 59 bd
       0.443266 0.19374216 -0.04883428 -0.053120673
0002b0 16 d7 77 bd a5 6e d9 3c 57 72 de 3c ee 85 2d 3d
       -0.060507856 0.026542017 0.02715413 0.042364053
0002c0 ff 83 f4 bd e2 e9 60 bd 9e a1 ba 3c a3 03 fa 3c
       -0.11939239 -0.054910548 0.022782143 0.030519312
0002d0 d0 4a ca 3d 26 6b 5b bd 67 71 39 3f 56 9e a7 bc
       0.098775506 -0.05356898 0.72438663 -0.020461243
0002e0 3b 10 63 3f 3e c4 ce bb da 85 dd 3c 5e 60 b4 be
       0.8869664 -0.006310015 0.027041364 -0.35229772
0002f0 75 57 3c bd 89 ef ab bd 0e 53 4a bc 0c 74 67 bd
       -0.045981843 -0.08395297 -0.012348903 -0.056507155
000300 61 27 ba bd d7 c0 d1 bc 77 11 ce bc 12 ae 33 bd
       -0.09089542 -0.025604649 -0.025154812 -0.04386718
000310 bc 1a cb be 74 e2 ac bd 83 53 0c be 8c cb c5 bd
       -0.39668834 -0.0844163 -0.13703732 -0.09657964
000320 0e 9a 99 be 6e 84 80 bc 46 11 7a bd 05 d8 5f bd
       -0.30000347 -0.015688147 -0.06105163 -0.05464937
000330 36 a8 5c 3d 87 c4 8d 3e ec 93 97 bd 8c 9d 8a 3d
       0.053871356 0.27689 -0.07401261 0.06768331
000340 50 86 21 bd ac 32 28 bd 35 b2 d4 bd f3 8a 81 3e
       -0.03943473 -0.04106395 -0.10385553 0.25301322
000350 44 2b 7e bd 10 2c 21 be 48 e3 a1 3c 68 99 c1 3e
       -0.06205298 -0.15739465 0.019761696 0.37812352
000360 a3 11 90 3d f3 7e 02 3d c6 27 1d 3e 95 ce 8d bd
       0.07034614 0.03185935 0.15347204 -0.06924168
000370 84 80 f2 bc a1 7f b8 3d 2c 95 ad bc fd 9f 4d bc
       -0.029602297 0.09008718 -0.021189295 -0.012550351
000380 f8 0c 08 bd 22 67 db bb 89 73 67 bd d4 04 5c 3e
       -0.033215493 -0.006695644 -0.056506667 0.21486217
000390 10 c0 52 bc ef 1e ba bd 0d e0 1b 3d 32 e5 15 3e
       -0.012863174 -0.09087931 0.03805547 0.14638212
0003a0 20 41 9c bc 8c 19 5d 3d f4 78 1d 3d 7a 12 d5 be
       -0.019074023 0.05397944 0.038445428 -0.4161566
0003b0 c5 40 05 3f fc 6a d9 bd a7 2b 6d bd 60 ca 35 3e
       0.52051955 -0.10616109 -0.05790296 0.17752981
0003c0 1c d5 0c 3e 0f 7e 91 3c d0 dd 08 bd 8f 24 8a 3c
       0.1375317 0.017760305 -0.033414662 0.016863136
0003d0 90 27 05 be 5d 23 6e 3e 0d 6f 37 bd e7 7e 74 bd
       -0.13003373 0.23255678 -0.04478364 -0.059691336
0003e0 9f d2 97 3e 50 20 34 3e 59 9f 3f 3d 89 52 09 3d
       0.2965288 0.17590451 0.046782825 0.033525977
0003f0 8f ac 86 3e 96 f7 e9 bb d4 7b 24 3e 79 84 30 bd
       0.26303527 -0.0071401102 0.16062862 -0.043095086

fc3.bias f4 [6]
000000 23 f0 ae bd 7c 3f 3d bd 5b ae 37 3d e5 bf 2c bd
       -0.08541896 -0.04620312 0.044844013 -0.042175192
000010 29 90 b5 bd 2b da 5a be
       -0.08865387 -0.21372287
